model/model_best.pth (torch, 19264 bytes, 4 tensors)

linear1.weight f4 [256, 12]
0	0xbf951456	-1.1646831
1	0x4131384f	11.076247
2	0x40a8e6f2	5.2781916
3	0x3f4bf711	0.7967387
4	0xbe0cd1e6	-0.13751945
5	0x3fadfdb8	1.3593054
6	0x3eaf5222	0.3424235
7	0x3e121bab	0.14268367
8	0xbe87e678	-0.2654302
9	0x4111bedb	9.109096
10	0x420098fa	32.14939
11	0x3d418d3f	0.047253843
12	0xbf9d912d	-1.2309929
13	0x412a362d	10.6382265
14	0x4095085e	4.6572714
15	0x3eab068d	0.33403435
16	0xbe74f22c	-0.23920506
17	0x3fad2076	1.3525531
18	0xbc6ea876	-0.014566531
19	0x3f2b3680	0.66880035
20	0xbcf2f810	-0.029659301
21	0x4101093a	8.064753
22	0x41e84d17	29.037642
23	0x3d9a98f2	0.07548703
24	0xbfbd912d	-1.4809929
25	0x412b1fa3	10.695224
26	0x408569d6	4.1691694
27	0x3f148340	0.5801277
28	0xbd22aa75	-0.03971334
29	0x3fd9260d	1.6964737
30	0x3ee4ff35	0.44725958
31	0x3ed9b740	0.4252262
32	0xbe166fbe	-0.14691064
33	0x40d96df1	6.7946706
34	0x41e5dda4	28.733223
35	0x3dce0338	0.10059208
36	0xc09dfdce	-4.937232
37	0x40b65c67	5.6987796
38	0xc0ab6b51	-5.35685
39	0x408eaaae	4.458335
40	0xbf0fe6b9	-0.5621143
41	0xc01d200e	-2.4550815
42	0xbf505382	-0.8137742
43	0xbce27610	-0.027644187
44	0x3d910d38	0.070825994
45	0xc0bee20f	-5.965095
46	0x408ecef7	4.4627643
47	0x3e1fdc45	0.1561137
48	0xbf75273a	-0.9576298
49	0x4129c877	10.611442
50	0x40165475	2.3489048
51	0x3f12f9a6	0.57412183
52	0x3d8a4969	0.06752283
53	0x3fa267a1	1.2687875
54	0x3e0ce0af	0.13757585
55	0x3ed1efcc	0.41003263
56	0xbe2a7f6e	-0.16650173
57	0x40894241	4.2893376
58	0x41c31551	24.385408
59	0x3c92c857	0.017917795
60	0xc043bb66	-3.058313
61	0x41239ea1	10.226228
62	0x3fca60e2	1.5810816
63	0xbeec99d6	-0.46211118
64	0xbe92eb01	-0.2869492
65	0x3f848299	1.0352355
66	0x3f006c79	0.50165516
67	0x3e4ff4fd	0.203083
68	0x3df45a0c	0.119312376
69	0x404eb078	3.2295208
70	0x41a4c463	20.595892
71	0xbe20ad59	-0.15691127
72	0xbd89d8d6	-0.06730811
73	0xbcc38e20	-0.023871481
74	0xbe6cace8	-0.23112833
75	0xbe91be23	-0.28465375
76	0x3de28da0	0.11062169
77	0xbe8d0d77	-0.27549335
78	0x3e05b80c	0.1305849
79	0xbd7b6e40	-0.06138444
80	0x3dfd7954	0.12376657
81	0xbe42f954	-0.19040424
82	0xbe221332	-0.15827635
83	0x3e0dcc8c	0.1384756
84	0xbfdd5f95	-1.7294794
85	0x4127e9a5	10.494542
86	0x403b232d	2.924022
87	0x3deccea6	0.115628526
88	0x3d26600c	0.04061894
89	0x3f423903	0.7586824
90	0x3f10b901	0.56532294
91	0x3eb7e08e	0.3591351
92	0x3e5c6da8	0.21526206
93	0x40a8da63	5.2766585
94	0x41c12013	24.140661
95	0x3c5986f5	0.013276805
96	0xc04220ab	-3.033244
97	0x411d63e9	9.836892
98	0x3fb27bb2	1.3943999
99	0xbfc64330	-1.5489254
100	0xbeb00c8c	-0.34384573
101	0x3f85c868	1.0451784
102	0x3f14a00d	0.5805672
103	0x3e2cca03	0.16873936
104	0xbe4e5419	-0.20149268
105	0x4002c91f	2.0435255
106	0x41951e6b	18.639853
107	0xbe12c4b4	-0.14332849
108	0xc00b3958	-2.175375
109	0x411eaa82	9.916628
110	0x40548bee	3.3210406
111	0x3e6bc2e2	0.2302356
112	0xbe092f91	-0.13397051
113	0x3fa68928	1.3010607
114	0x3f1f75b6	0.6228899
115	0xbee40a65	-0.4453918
116	0x3e504c0e	0.20341513
117	0x40b61b6d	5.690848
118	0x41d1dfe3	26.23432
119	0xbe79d708	-0.24398434
120	0xc087d825	-4.245135
121	0x408b10de	4.345809
122	0xc0b1ce4e	-5.5564337
123	0x4106cac0	8.4244995
124	0xbd6a4e6c	-0.057203695
125	0xbfb38f97	-1.4028195
126	0xbea2776f	-0.31731746
127	0xbefb1d95	-0.49046007
128	0xbe82000d	-0.25390664
129	0xc0d47c62	-6.6401834
130	0x403b3c16	2.9255424
131	0x3e0bc855	0.1365064
132	0xbe5927fe	-0.21206662
133	0xbd0f0f28	-0.034926564
134	0xbe07fa5a	-0.13279095
135	0xbda2a20c	-0.07941064
136	0x3e7478f8	0.23874271
137	0x3d1591e8	0.0365161
138	0x3c849a00	0.016186714
139	0x3d92876c	0.07154736
140	0x3dc7a280	0.09747791
141	0xbe938033	-0.28808746
142	0xbd2a42d0	-0.041567624
143	0xbd909e0c	-0.07061395
144	0xbe808eaf	-0.2510886
145	0xbe1f6f74	-0.1556986
146	0xbe091cb0	-0.1338985
147	0x3da6d878	0.08146757
148	0xbe0725a0	-0.13197947
149	0xbe56d11c	-0.20978206
150	0x3db334d0	0.087503076
151	0xbe4331f2	-0.19062021
152	0xbd7a99f8	-0.061181992
153	0xbe92ba38	-0.286577
154	0x3c8a2f10	0.016868144
155	0xbe85a3b5	-0.2610146
156	0xbfe68391	-1.8008901
157	0x41044838	8.267632
158	0xbfce108b	-1.6098799
159	0xbfaafb36	-1.3357913
160	0x3e43642e	0.19081184
161	0x3f0d18b6	0.5511583
162	0xbd7f505d	-0.0623325
163	0xbef73c8d	-0.48288384
164	0x3d93a544	0.07209256
165	0xc0052856	-2.080587
166	0x415f9307	13.973395
167	0xbe848b04	-0.2588731
168	0xbf8dcaa0	-1.1077461
169	0x3ffcfbc5	1.9764334
170	0xc0865e5d	-4.199019
171	0x406d822b	3.7110698
172	0xbf995789	-1.1979839
173	0xbff5621d	-1.9170567
174	0xbf685ab2	-0.9076339
175	0x3f1b9120	0.6076832
176	0x3e5a4dd8	0.21318758
177	0xc081130c	-4.033575
178	0x4027385d	2.6128151
179	0x3d7bf413	0.061512064
180	0xbff82297	-1.9385556
181	0x412574b3	10.340991
182	0x40136a0b	2.3033473
183	0xbf62bad2	-0.88566315
184	0xbe25b776	-0.16183266
185	0x3fc26e90	1.5189991
186	0xbd3879ab	-0.045037907
187	0x3ea75c7f	0.32687756
188	0xbe2e2f57	-0.17010246
189	0x4081e8f3	4.059686
190	0x41b9068c	23.128197
191	0x3c45f9e8	0.012083508
192	0xbff28ff5	-1.8950182
193	0x411041d3	9.01607
194	0xbf9d86f6	-1.2306812
195	0xbfafd9f5	-1.373839
196	0x3de47d9f	0.11156773
197	0x3f0ffe75	0.56247646
198	0xbeeaec03	-0.45883188
199	0xbe8b7ad2	-0.27242142
200	0xbe62dc34	-0.22154313
201	0xbf9d82a9	-1.2305499
202	0x4175110b	15.316661
203	0xbe5b303f	-0.21405123
204	0xc01ce37b	-2.4513843
205	0x4123f65a	10.247644
206	0x4023c641	2.5589755
207	0xbf3520d3	-0.7075321
208	0xbe8a6339	-0.27028826
209	0x3f9820a5	1.1884962
210	0x3f30b6d1	0.69028956
211	0x3e6a4da7	0.22881185
212	0xbe277b42	-0.16355613
213	0x407f1c18	3.9860897
214	0x41b252a9	22.290361
215	0x3e758731	0.23977353
216	0x3dade4f2	0.084909335
217	0x3e128ef9	0.14312352
218	0xbd1c9060	-0.038223624
219	0xbe440f7c	-0.19146532
220	0xbcddd434	-0.027078725
221	0x3dbd1dca	0.092341974
222	0xbe0b9e0d	-0.1363451
223	0xbd864e82	-0.06557943
224	0x3cc811e0	0.024422586
225	0xbd34b354	-0.044116333
226	0xbe8c882f	-0.2744765
227	0xbe9376f4	-0.28801692
228	0xc0016ce9	-2.0222723
229	0x41332400	11.196289
230	0x408157f6	4.0419874
231	0x3f8628e9	1.0481235
232	0xbe7593a2	-0.23982099
233	0x3fa6f3a7	1.3043107
234	0x3ed4efcd	0.41589203
235	0x3ebd7691	0.3700452
236	0x3d956d08	0.07296187
237	0x4103e7e2	8.244112
238	0x41de0a66	27.755077
239	0x3e574f80	0.2102642
240	0xbfa51c20	-1.2899208
241	0x41316fca	11.089792
242	0x40960119	4.687634
243	0x3eda65b7	0.42655727
244	0x3e692a0c	0.22769946
245	0x3f4d57ff	0.80212396
246	0x3eeee3f9	0.46658304
247	0x3ebcb1b0	0.36854315
248	0xbe809d93	-0.2512022
249	0x41015af6	8.084707
250	0x41dc5a43	27.544073
251	0x3e8bfe68	0.27342534
252	0xbffa88e1	-1.9573022
253	0x412cff97	10.8124
254	0x408bea32	4.3723383
255	0x3ecc5e08	0.3991549

linear1.bias f4 [256]
0	0x4204d9d0	33.212708
1	0x41ef2c87	29.896742
2	0x41eb25d9	29.39348
3	0x4099bfd0	4.8046646
4	0x41cb322d	25.3995
5	0x41a73bcc	20.904198
6	0x3d249970	0.040185392
7	0x41c6d433	24.853613
8	0x419a20b2	19.265965
9	0x41d96148	27.1725
10	0x4035077b	2.8285816
11	0xbe8b713f	-0.27234837
12	0xbe58437f	-0.21119498
13	0x4169dc2c	14.616253
14	0x40307b33	2.7575195
15	0x41bdc5f0	23.72165
16	0x41811c39	16.13878
17	0x41b69c6f	22.826384
18	0xbd8fb1ef	-0.0701636
19	0x41e1e5b3	28.237158
20	0x41e27bb3	28.3104
21	0x41eab691	29.339144
22	0x416e652c	14.8997
23	0xbe304574	-0.17213994
24	0x41bc247d	23.517817
25	0x41ce22de	25.767025
26	0x41e117c4	28.136604
27	0x41de6355	27.798502
28	0x41981f3b	19.01525
29	0x42010f18	32.26474
30	0x3e16ca07	0.14725505
31	0x41d8870d	27.065943
32	0x3fcdd3fd	1.6080319
33	0x4191d38d	18.228296
34	0x41c78a0a	24.942402
35	0x41a53579	20.65111
36	0x41a2612a	20.297443
37	0x41cb38f9	25.402819
38	0x41d1d117	26.227095
39	0x4100185a	8.005945
40	0x41ad9a5f	21.700377
41	0x41cef1de	25.8681
42	0x41e7cac5	28.974009
43	0xbe148d7b	-0.14507096
44	0x41c385ee	24.440395
45	0x40adddeb	5.4333396
46	0x40d0234d	6.504309
47	0x40cf5379	6.4789395
48	0xbe85661d	-0.2605447
49	0xbdb8ccc8	-0.09023434
50	0x41b0827c	22.063713
51	0x41bc5688	23.542252
52	0xbd8d4608	-0.06898123
53	0x419d9eb5	19.702494
54	0xbe76e9a9	-0.24112572
55	0xbe69890b	-0.22806184
56	0x41c731e5	24.899363
57	0x41e0ed7a	28.115955
58	0x42035874	32.83638
59	0x4187a87c	16.957268
60	0x41df306b	27.898642
61	0x41e4a385	28.579844
62	0xbde35c88	-0.11101633
63	0x40820826	4.0634947
64	0x41a2bbe6	20.341747
65	0xbe8da47d	-0.27664557
66	0x41b871ef	23.055632
67	0x3d7fb442	0.062427767
68	0x41bce7a3	23.613104
69	0x41c5635b	24.673513
70	0x418f9be9	17.951128
71	0x41f15473	30.166235
72	0x414b3cd6	12.702353
73	0x41a9f9f4	21.247047
74	0x409cc3a0	4.89888
75	0xbe4adf3c	-0.1981172
76	0x4205a0ff	33.407223
77	0x41f1bc15	30.216837
78	0x41b15ecf	22.171293
79	0x41b4b8d5	22.59025
80	0x4191517a	18.164783
81	0x41b20951	22.254549
82	0x405de076	3.466825
83	0x41b178e1	22.184023
84	0x41c9d790	25.230255
85	0x41dab284	27.337166
86	0x41eb1790	29.386505
87	0x41fb2fff	31.398436
88	0x40f46fdb	7.638654
89	0x410ea669	8.9156275
90	0x4195cf9b	18.72637
91	0x41a44e00	20.538086
92	0xbe7f6a01	-0.24942781
93	0x41d2c735	26.34727
94	0x41d04e93	26.038366
95	0x3fdd0e01	1.7269899
96	0x3f8ec278	1.1153097
97	0xbebc5430	-0.3678298
98	0x40f33b6f	7.601005
99	0x4156c2ce	13.42256
100	0xbe2c5b2a	-0.16831651
101	0x40f7b0fa	7.7403536
102	0x41e9f363	29.243841
103	0xbe275c1d	-0.16343732
104	0x41e437cc	28.527245
105	0x41a9ca3e	21.223751
106	0x419ece84	19.850838
107	0x41010268	8.063087
108	0x418edc0a	17.85744
109	0xbe43dd8e	-0.19127485
110	0x419fbdcc	19.967674
111	0x41055628	8.333534
112	0x40862210	4.191658
113	0x41d39667	26.448439
114	0x41be793c	23.809196
115	0x41715002	15.082033
116	0x40e5f93e	7.186675
117	0x408e1f89	4.4413495
118	0x41a56e62	20.678898
119	0x41e3fbaa	28.497883
120	0x41c159b2	24.168797
121	0x42022982	32.540535
122	0x415eeabc	13.932308
123	0xbe7177aa	-0.23580804
124	0x41d5cbd6	26.72453
125	0x4139ce13	11.612811
126	0x4192e78d	18.363062
127	0x40b64d7f	5.69696
128	0x41affc1e	21.998104
129	0x4209cecc	34.45195
130	0x41c101b6	24.125835
131	0x4184e645	16.612436
132	0x4207a1b8	33.90793
133	0xbe315bd1	-0.17320181
134	0x42062c70	33.543396
135	0x41f1c0a2	30.219059
136	0x4199009f	19.125303
137	0x41eec7b9	29.84752
138	0xbeadcaa9	-0.3394368
139	0x41c5ab78	24.708725
140	0x41a74f8e	20.913845
141	0x41a278f8	20.309067
142	0x40f9b177	7.802913
143	0x41f5593c	30.668571
144	0x41b4646b	22.549032
145	0xbe655d74	-0.22398931
146	0x41b15516	22.166546
147	0x41c29b30	24.325775
148	0x41ee9729	29.823809
149	0x41cbff48	25.49965
150	0x41f601f1	30.750948
151	0x41d4a140	26.578735
152	0x41e10109	28.125505
153	0xbd8c5112	-0.068514004
154	0x420c139a	35.019142
155	0x40e3a53e	7.113921
156	0x4184a717	16.581587
157	0x4106724c	8.4029045
158	0xbe7a1b12	-0.24424389
159	0x41c17725	24.183176
160	0x42044c33	33.074413
161	0x41b66452	22.798985
162	0x41aef6d4	21.870522
163	0x41e92494	29.14286
164	0x41ea0f0c	29.257347
165	0x41307e27	11.030799
166	0x410b87bb	8.720637
167	0x40b583ab	5.6723228
168	0x3fa4a222	1.2861979
169	0x4054a361	3.3224719
170	0xba27fc00	-0.00064080954
171	0x41bf8e2e	23.944424
172	0x41d0484a	26.035297
173	0x41ce1a9c	25.762993
174	0x417b48de	15.70529
175	0x41e20f34	28.257423
176	0x41be3696	23.776653
177	0x41949268	18.571487
178	0xbdb1ecc4	-0.086877376
179	0x41cbda62	25.481632
180	0x411b773b	9.716609
181	0x41c8e536	25.11192
182	0x3f62b70e	0.8856057
183	0x4113862d	9.220258
184	0x41001c40	8.006897
185	0x4203fcd2	32.996895
186	0xbe207a20	-0.15671587
187	0x420246be	32.569084
188	0x41967934	18.809181
189	0x41fc7551	31.557283
190	0xbe4fbe2f	-0.20287393
191	0xbcdbe5a1	-0.026842894
192	0x41c2e2fa	24.360828
193	0x41a3d886	20.480724
194	0xbddf5ff1	-0.10906971
195	0x41907482	18.056889
196	0x4203d4fc	32.957993
197	0xbe8a9caa	-0.2707265
198	0x4174b9a9	15.295327
199	0x3f48b8ec	0.7840717
200	0x41b1a7de	22.206966
201	0x4205d407	33.457058
202	0x41876415	16.923868
203	0x4170d8e6	15.052954
204	0x4097a7c2	4.7392282
205	0x41f31104	30.383308
206	0x4193db6d	18.482141
207	0xc0afe44a	-5.4966173
208	0xbe09eb6e	-0.13468716
209	0x41666470	14.399521
210	0x41c8aa4e	25.083157
211	0x41faa804	31.332039
212	0x41a4098f	20.504667
213	0x41de2023	27.765692
214	0x41202a11	10.01027
215	0x4034fd0a	2.8279443
216	0x41a7f1f2	20.993137
217	0xbe87976d	-0.26482716
218	0x4143e5cb	12.243602
219	0x41106c4d	9.026441
220	0x4192d890	18.355743
221	0x41c5bdd9	24.7177
222	0x40fee511	7.965462
223	0xbe7a1493	-0.24421911
224	0x41c358a5	24.418283
225	0x41c5f1f1	24.743135
226	0x3e35a923	0.17740302
227	0x41e15ffa	28.171864
228	0x41dd8d44	27.693977
229	0x41dd3e23	27.65534
230	0x41d60883	26.754156
231	0x3f5e375e	0.86803234
232	0x41bef707	23.870619
233	0x41ec167a	29.510975
234	0x408b7e79	4.3591886
235	0xc01f88ff	-2.4927366
236	0xbe1de085	-0.15417679
237	0x4202bc0f	32.68365
238	0x41eb4749	29.409807
239	0x41d54cd2	26.66251
240	0x41bd525b	23.665213
241	0x41e29b6e	28.325893
242	0x41c46e7b	24.553946
243	0x41d0ddd1	26.108309
244	0x41d16f47	26.179335
245	0x4189e0a7	17.234694
246	0x41a050a9	20.039385
247	0x405d0c6c	3.4538832
248	0x410f3566	8.950537
249	0x42008700	32.131836
250	0x41621616	14.130392
251	0x405bad7d	3.432464
252	0x407db586	3.9642043
253	0x40d2f516	6.5924177
254	0x420854d2	34.082832
255	0x41a3a6cc	20.456444

linear2.weight f4 [4, 256]
0	0x3ef4a7cd	0.47784272
1	0x3ed8da55	0.42354074
2	0x3f0610b8	0.5236926
3	0x402917ab	2.6420696
4	0x3efa0419	0.4883125
5	0x3f225d79	0.6342388
6	0xbd19acf8	-0.03751847
7	0x3ef730c0	0.4827938
8	0x3f2e3d7d	0.68062574
9	0x3f12f96e	0.5741185
10	0x40291d5c	2.642417
11	0x3d4d71a0	0.05015719
12	0x3c0b7278	0.008511178
13	0x3f50b05f	0.8151912
14	0x3ea84336	0.32863778
15	0x3f198003	0.59960955
16	0x3f39d6cc	0.7259338
17	0x3f1c35ba	0.6101948
18	0x3c8247a1	0.015903296
19	0x3ee9ee4c	0.4568962
20	0x3ee2d95d	0.4430646
21	0x3f0dc5a2	0.5537969
22	0x3ff5791e	1.9177587
23	0xbbaa82c0	-0.005203575
24	0x3f300847	0.6876263
25	0x3efce2a2	0.49391657
26	0x3f13219b	0.5747315
27	0x3f12b8b3	0.5731308
28	0x3f120b66	0.5704864
29	0x3efcfc7d	0.49411383
30	0x3d61137a	0.054950215
31	0x3f00f35a	0.50371325
32	0xbfb39b7f	-1.4031829
33	0x3f311d16	0.69185007
34	0x3f07d657	0.5306143
35	0x3f31c0ce	0.6943482
36	0x3f266a9d	0.6500643
37	0x3f0e2f86	0.55541265
38	0x3f1281a0	0.5722904
39	0x3fd07553	1.6285805
40	0x3f0f4ed9	0.55979687
41	0x3f019724	0.5062125
42	0x3f0d4d8d	0.5519646
43	0x3cce3f0a	0.025176544
44	0x3f07bfca	0.5302702
45	0x40130583	2.2972114
46	0x400e4c46	2.2234054
47	0x3fd511ee	1.6646097
48	0x3ccfdc28	0.025373533
49	0xbc50c5d8	-0.012742482
50	0x3f42fc66	0.7616638
51	0x3ef8bd15	0.48581758
52	0xbcfb7110	-0.03069356
53	0x3f289efa	0.6586758
54	0xbd35cf4c	-0.044387147
55	0x3c1a15c8	0.009404607
56	0x3f04f7b0	0.5194044
57	0x3eeb5290	0.45961428
58	0x3f02acbe	0.51044834
59	0x3f3a7523	0.72834986
60	0x3f0a403f	0.5400428
61	0x3f1345c6	0.5752834
62	0xbd295480	-0.04134035
63	0x406acde9	3.6688178
64	0x3f01ee09	0.5075384
65	0xbce7158c	-0.028208517
66	0x3efdc2c1	0.49562648
67	0x3b1112de	0.002213649
68	0x3f00be4e	0.5029038
69	0x3f13034c	0.57426906
70	0x3f1b96e6	0.6077713
71	0x3efea25d	0.49733248
72	0x3f98251f	1.1886328
73	0x3f39f3e6	0.72637784
74	0x402806f5	2.6254246
75	0x3d58ae3c	0.052900538
76	0x3eec6dd3	0.4617754
77	0x3ee525ec	0.44755495
78	0x3f0c1045	0.54712325
79	0x3f0d0433	0.5508453
80	0x3f2e2ae4	0.68034196
81	0x3f2d5375	0.6770547
82	0x403110be	2.7666469
83	0x3f0cf260	0.55057335
84	0x3f1de120	0.6167164
85	0x3f041f88	0.5161061
86	0x3f0f9955	0.5609334
87	0x3edb8fcf	0.42883155
88	0x4001161c	2.0169744
89	0x3f3e991d	0.7445238
90	0x3f12ffb3	0.57421416
91	0x3ef96454	0.48709357
92	0xbd648529	-0.055791054
93	0x3f1a162c	0.6019008
94	0x3f042a0a	0.51626647
95	0x40480d65	3.1258175
96	0x40828a31	4.079369
97	0xbf089744	-0.53355813
98	0x400641a4	2.0977564
99	0x40011456	2.0168662
100	0xbc6b7678	-0.014371507
101	0x3fdb0702	1.7111514
102	0x3f0d7977	0.55263466
103	0xbd57af95	-0.052657682
104	0x3eeb75cb	0.45988306
105	0x3f35fb9a	0.7108704
106	0x3f34c581	0.7061387
107	0x3fd2838a	1.6446393
108	0x3f5568ae	0.83362854
109	0x3ac484ea	0.0014993225
110	0x3efb982c	0.49139535
111	0x3fe69fcb	1.8017515
112	0x3fdc36df	1.7204245
113	0x3f01a1ba	0.506374
114	0x3f11820c	0.5683906
115	0x3f1e8d0f	0.6193399
116	0x4001218d	2.0176728
117	0x404122ec	3.0177565
118	0x3f1655ac	0.58724475
119	0x3f001857	0.5003714
120	0x3f09a486	0.5376667
121	0x3ef791db	0.48353466
122	0x3f7996f5	0.9749597
123	0xbc5cb178	-0.013470046
124	0x3f133a5d	0.5751093
125	0x3f824fed	1.0180641
126	0x3f31d00f	0.694581
127	0x400d1620	2.2044754
128	0x3f27d15c	0.6555383
129	0x3ee14c10	0.44003344
130	0x3f0d42e0	0.5518017
131	0x3f0891cd	0.53347474
132	0x3ed9ec09	0.42562893
133	0x3d686b0c	0.056742713
134	0x3eeafa9d	0.45894328
135	0x3f03c472	0.51471627
136	0x3f3f5c2c	0.7475002
137	0x3f0681da	0.5254189
138	0xbc69e958	-0.014276825
139	0x3f0332a9	0.51249176
140	0x3f0101fc	0.5039365
141	0x3f20f625	0.62875587
142	0x4019ef23	2.4052207
143	0x3ed2f650	0.41203547
144	0x3efa3e5c	0.488757
145	0x3d3cb4fc	0.046071038
146	0x3efdf6a5	0.49602237
147	0x3f2dd96f	0.679099
148	0x3f012206	0.5044254
149	0x3efa2100	0.48853302
150	0x3ef7360d	0.48283425
151	0x3ef13015	0.47106996
152	0x3edc1f0b	0.42992434
153	0x3d25734a	0.04039315
154	0x3efd3c3a	0.49460012
155	0x401fc9f3	2.496701
156	0x3f19cb10	0.60075474
157	0x3f90255e	1.1261404
158	0xbd6331d8	-0.055467457
159	0x3f18addf	0.59640306
160	0x3eea9a74	0.45820963
161	0x3f0cf79c	0.5506532
162	0x3f1a4504	0.6026156
163	0x3ebf214e	0.37330097
164	0x3eece648	0.4626944
165	0x3faaadd2	1.3334296
166	0x3f9314e2	1.1490748
167	0x3fd259a5	1.6433607
168	0x4005bd9d	2.089698
169	0x40280dee	2.6258502
170	0x3cb61614	0.022227325
171	0x3f101498	0.56281424
172	0x3ed82e0e	0.42222637
173	0x3f05413b	0.5205266
174	0x3f1f069f	0.6211948
175	0x3ef35060	0.4752226
176	0x3f0fe171	0.5620337
177	0x3f23ca0b	0.6398017
178	0x3ce37285	0.027764568
179	0x3eef3843	0.46722612
180	0x3fa6a53f	1.3019179
181	0x3f027cef	0.50971884
182	0x404c13fd	3.18872
183	0x3f648046	0.8925823
184	0x3fc5bc30	1.5448055
185	0x3ef3d5e8	0.47624135
186	0x3d836cb5	0.064172186
187	0x3ecc3a14	0.3988806
188	0x3f16caa4	0.58902955
189	0x3f01af73	0.5065834
190	0xbd0c4a6d	-0.034250665
191	0x3d4e514a	0.050370492
192	0x3f1476c8	0.57993746
193	0x3f068e96	0.5256132
194	0x38ba4dfc	8.883697e-05
195	0x3f34d96d	0.70644265
196	0x3eecd840	0.46258736
197	0xbd819e83	-0.06329062
198	0x3f20be9e	0.6279086
199	0xbe346fa5	-0.17620714
200	0x3f03c16e	0.51467025
201	0x3efff074	0.4998814
202	0x3f4dc968	0.80385447
203	0x3f34e868	0.70667124
204	0x401a4ac1	2.4108126
205	0x3ee03d5e	0.4379682
206	0x3f3ccda2	0.7375127
207	0xc10dfa10	-8.87355
208	0xbd317953	-0.043328594
209	0x3f8701c6	1.0547416
210	0x3f163bbf	0.58684915
211	0x3ef53f15	0.4789969
212	0x3f0cd964	0.5501921
213	0x3efba5ba	0.49149877
214	0x3f99d070	1.2016735
215	0x4037b89e	2.8706431
216	0x3f339583	0.7015001
217	0x3bc2082d	0.005921385
218	0x3f2b5c4d	0.66937715
219	0x3f74338d	0.9539116
220	0x3f4b152c	0.7932918
221	0x3f100c3d	0.56268674
222	0x4012a843	2.2915199
223	0x3d82ff1f	0.06396317
224	0x3f04fa5b	0.5194451
225	0x3f0833c7	0.53204006
226	0x3feee1f2	1.8662703
227	0x3ee6b775	0.45061842
228	0x3f13e347	0.5776867
229	0x3eff1107	0.49817678
230	0x3f05806f	0.521491
231	0x406b40da	3.6758332
232	0x3f09efe3	0.53881663
233	0x3f0f2f35	0.5593141
234	0x3fcaa937	1.583289
235	0xc0a04091	-5.0078816
236	0xbb381b40	-0.0028092414
237	0x3ec78a02	0.3897248
238	0x3f1eb34d	0.6199234
239	0x3f088e2c	0.5334194
240	0x3f096aef	0.5367879
241	0x3ef36de3	0.47544774
242	0x3f019a08	0.5062566
243	0x3f26c815	0.6514905
244	0x3f2186b2	0.63096154
245	0x3f5d35f2	0.8641044
246	0x3f10d111	0.5656901
247	0x3ff9eb0c	1.9524856
248	0x3f462927	0.77406543
249	0x3efe2d36	0.49643868
250	0x3f86bcb2	1.0526335
251	0x40769f7e	3.8534846
252	0x40312fa3	2.7685325
253	0x40042493	2.0647323
254	0x3edbf269	0.42958382
255	0x3f182801	0.5943604

linear2.bias f4 [4]
0	0x3e9e1b91	0.30880406
1	0x3ecdfd36	0.40232247
2	0x3ea15c50	0.3151574
3	0x3ea25ac7	0.31709883
