model/model.pth (torch, 282868 bytes, 6 tensors)

linear1.weight f4 [256, 12]
-0.36318433 -0.06788031 0.619176 0.28891623 0.07536465 0.19157211 -0.06244059 0.0763365
0.23548573 0.5393422 2.1941211 0.039259925 -0.022315845 0.35932994 0.017783945 -0.07255083
0.08145734 -0.042406723 -0.2797632 0.21647975 -0.17674977 0.64801496 1.7372471 0.39180535
0.16245124 0.37604704 0.18160087 0.059004948 0.17878819 -0.074727595 0.08524731 0.00675827
0.22700626 0.86794573 2.5508382 0.34568432 -0.027311888 0.15956405 0.48547933 -0.10471181
-0.010511633 0.33639228 0.3428679 -0.25856537 -0.17868811 0.9394584 2.4933772 0.5754036
0.024417378 0.4204656 0.7618634 0.015988052 -0.022011865 0.27609006 0.1338115 0.21831581
-0.20845084 0.72255623 2.6822145 0.37430388 -0.016219698 0.13054882 0.3930169 -0.090774804
0.16212045 -0.07068519 0.2599788 0.2070133 -0.10898623 1.130404 2.7134287 0.123621196
0.05838907 0.3140675 0.38010672 -0.21429145 -0.17888081 0.045807455 0.1330403 -0.2999426
-0.28857478 0.9862576 2.010286 0.24327911 0.08076333 0.4495128 0.58925027 0.3615827
-0.17339593 -0.13511537 -0.006046625 -0.00902849 0.23973012 1.139734 2.6272006 0.25834242
0.19728404 0.08819106 0.73536247 -0.11001212 0.19986169 0.19089504 0.0066034454 -0.2039696
-0.10783681 1.0120671 2.3748205 0.31288227 0.2290855 0.3480656 -0.93587613 -0.26280418
0.3137409 0.084470294 0.1264778 -0.10941198 -0.08933483 -0.038757447 0.20689814 0.33115208
0.093807265 0.29629695 0.60972834 0.0032780753 -0.37451085 0.11418309 0.13134448 -0.32445452
0.07903251 0.5460476 1.6737096 -0.10076228 0.03960593 0.4468968 0.64317286 0.18257976
-0.17662442 0.18621843 -0.1619265 -0.03452295 0.08496067 0.9441245 2.5301135 0.5300606
0.16278522 0.21598838 0.5056431 0.4152558 -0.26858962 0.27395418 0.20579967 0.06143903
0.27983665 1.1410586 2.4150534 0.344962 0.132615 -0.12337941 0.69898593 -0.16221763
-0.14372836 0.016817015 -0.14060967 -0.04884136 0.102766186 1.0592909 2.3333395 0.4070678
0.019833984 0.068596095 0.67684674 -0.008029568 0.1314487 0.08646297 -0.18333808 -0.0064003724
-0.1299116 0.9730097 2.1287153 0.3661104 -0.19630612 0.14025871 0.13441917 -0.13905947
-0.14284807 0.25257656 -0.1747624 0.33725438 0.28397262 -0.1839375 0.1668638 0.06665905
0.103019655 0.18737718 0.71538687 -0.16036779 0.121511646 0.08188303 -0.085714325 0.3073832
0.2472682 0.78381777 2.2631955 0.30445156 -0.22946048 0.08681091 0.36431453 -0.24526566
0.07213531 0.150536 0.15695468 -0.030491192 0.2875929 1.2582631 2.332326 0.48249507
-0.1727147 0.23916157 0.5281914 0.18278173 -0.17700592 0.20497495 0.15380004 0.12213761
0.13536695 1.177699 2.5015857 0.53096163 -0.24519096 0.13021305 -0.2847616 0.14080264
-0.028348144 -0.12526298 -0.18736044 -0.15178163 0.21881068 0.20207222 0.08911804 0.10425176
0.29237807 0.21864799 0.50955075 0.34779593 0.15250936 -0.13834219 -0.17607214 0.0954094
-0.04976484 1.0269449 2.4132414 0.21863702 -0.23503806 0.2234732 0.748958 0.40596446
00000000: 4cf3 b9be d504 8bbd 5182 1e3f d4ec 933e
00000010: c858 9a3d 7b2b 443e b4c1 7fbd 5056 9c3d
00000020: 2c23 713e 5512 0a3f 7b6c 0c40 04cf 203d
00000030: b8cf b6bc 18fa b73e a3af 913c 8895 94bd
00000040: 1bd3 a63d acb2 2dbd 1f3d 8fbe deac 5d3e
00000050: e4fd 34be 4fe4 253f 1d5e de3f b69a c83e
00000060: 9e59 263e 3d89 c03e 94f5 393e 2caf 713d
00000070: 4014 373e c80a 99bd 2496 ae3d 7a74 dd3b
00000080: 5474 683e b131 5e3f ef40 2340 89fd b03e
00000090: 2ebd dfbc c264 233e bf90 f83e 2573 d6bd
000000a0: fc38 2cbc 9c3b ac3e 628c af3e ae62 84be
000000b0: 04fa 36be 5880 703f 7e93 1f40 a64d 133f
000000c0: f406 c83c 4447 d73e 7b09 433f 60f9 823c
000000d0: 3a52 b4bc ad5b 8d3e e205 093e 2e8e 5f3e
000000e0: 2374 55be 72f9 383f 67a9 2b40 c2a4 bf3e
000000f0: 2cdf 84bc 97ae 053e 8339 c93e 24e8 b9bd
00000100: e702 263e 66c3 90bd f11b 853e 4bfb 533e
00000110: 2c34 dfbd 14b1 903f d1a8 2d40 1c2d fd3d
00000120: 6129 6f3d 75cd a03e 599d c23e 386f 5bbe
00000130: 882c 37be 99a0 3b3d b73b 083e 1492 99be
00000140: 13c0 93be 617b 7c3f 87a8 0040 291e 793e
00000150: 3f67 a53d 8b26 e63e 1bd9 163f 5e21 b93e
00000160: b48e 31be af5b 0abe c422 c6bb 3bec 13bc
00000170: d07b 753e cee2 913f 0e24 2840 7545 843e
00000180: d404 4a3e 849d b43d b740 3c3f 094e e1bd
00000190: 8ba8 4c3e fd79 433e b761 d83b 68dd 50be
000001a0: 8cd9 dcbd 6a8b 813f 0ffd 1740 1b32 a03e
000001b0: 6495 6a3e a835 b23e 9495 6fbf 458e 86be
000001c0: a6a2 a03e c3fe ac3d 6583 013e 6313 e0bd
000001d0: 2ef5 b6bd 21c0 1ebd 1bdd 533e c48c a93e
000001e0: 061e c03d 3cb4 973e 2817 1c3f fad4 563b
000001f0: e3bf bfbe d3d8 e93d 2b7f 063e e71e a6be
00000200: ccdb a13d c7c9 0b3f 1e3c d63f 745c cebd
00000210: d439 223d a8cf e43e faa6 243f 30f6 3a3e
00000220: 08dd 34be 0bb0 3e3e 0fd0 25be f067 0dbd
00000230: dcff ad3d 25b2 713f 61ed 2140 0db2 073f
00000240: 2bb1 263e 0f2c 5d3e d471 013f 699c d43e
00000250: 9484 89be b943 8c3e 26bd 523e 7ea7 7b3d
00000260: c046 8f3e 350e 923f 3c90 1a40 dc9e b03e
00000270: 3acc 073e 58ae fcbd bef0 323f 611c 26be
00000280: 872d 13be d6c3 893c fbfb 0fbe e10d 48bd
00000290: 1477 d23d d896 873f 6f55 1540 316b d03e
000002a0: e17a a23c 1c7c 8c3d d445 2d3f 738e 03bc
000002b0: 7d9a 063e 7f13 b13d fabc 3bbe 37ba d1bb
000002c0: 8c07 05be 2a17 793f df3c 0840 d372 bb3e
000002d0: 7904 49be fb9f 0f3e 2ea5 093e 9b65 0ebe
000002e0: c446 12be b751 813e eaf4 32be 9bac ac3e
000002f0: dc64 913e 1d5a 3cbe 58de 2a3e 8a84 883d
00000300: f8fb d23d cedf 3f3e 9823 373f 7437 24be
00000310: 19db f83d 4ab2 a73d fe8a afbd 5561 9d3e
00000320: e033 7d3e 48a8 483f 32d8 1040 13e1 9b3e
00000330: b0f7 6abe ebc9 b13d 6f87 ba3e ec26 7bbe
00000340: adbb 933d 1c26 1a3e bab8 203e aac8 f9bc
00000350: 603f 933e c40e a13f d444 1540 9809 f73e
00000360: 1fdc 30be c5e6 743e 8d37 073f 222b 3b3e
00000370: 0a41 35be f4e4 513e c27d 1d3e 4923 fa3d
00000380: a29d 0a3e d7be 963f fb19 2040 1aed 073f
00000390: 5713 7bbe 9256 053e 46cc 91be 912e 103e
000003a0: 5e3a e8bc f044 00be 6adb 3fbe a56c 1bbe
000003b0: e80f 603e 05ec 4e3e 8583 b63d f281 d53d
000003c0: 94b2 953e 42e5 5f3e eb71 023f 4f12 b23e
000003d0: 6a2b 1c3e 93a9 0dbe 414c 34be 0166 c33d
000003e0: 38d6 4bbd ee72 833f 8c72 1a40 62e2 5f3e
000003f0: d1ad 70be 29d6 643e b6bb 3f3f 93da cf3e

linear1.bias f4 [256]
2.0215964 2.0884383 2.5302696 2.4595842 2.659075 2.5686128 1.901114 2.141045
2.14861 0.6058301 1.8467741 2.615873 2.611181 2.206007 2.2108407 -0.20425868
1.7985038 2.0505545 2.7208006 -0.0307108 2.0517983 2.4129956 1.7962134 1.9194559
2.1012282 2.4178593 2.6854239 2.3662422 -0.17838138 -0.30058074 2.6620913 2.2119093
2.4875119 -0.34969082 1.8650904 0.8109558 2.5852032 -0.26158255 2.3431137 2.4038978
1.9775019 0.47643209 2.2628236 -0.030563993 -0.028532656 1.8341686 1.6280253 2.577863
2.451831 -0.18871891 -0.2365675 2.5479565 2.0442338 2.5471742 2.3361135 2.359381
-0.073548876 -0.2600979 2.0007312 -0.2890965 2.6814454 -0.19193311 0.4570238 1.9481938
1.9532416 2.594466 1.9021976 2.2252681 -0.11023017 1.8809906 2.4140406 -0.16248883
-0.19265535 2.240526 0.20713098 2.4879956 2.5298953 1.558021 2.2420788 2.1056993
0.503213 1.966979 2.3280106 0.46370357 2.3591852 2.0687463 -0.2964122 1.7259957
1.8742393 -0.16464955 2.0123148 2.512534 2.272989 1.7212317 2.3989668 1.8697315
2.4773054 1.868361 2.280367 2.6207986 0.85551524 1.4406744 2.6062517 2.5306075
1.7779394 2.204994 2.3559608 2.3298163 1.7773553 2.5672486 1.6921625 -0.21017192
2.3361738 -0.05246827 -0.19925718 2.5460472 -0.2075061 2.2470045 1.9522021 1.6409714
2.3642032 -0.16320932 2.5708425 0.03690749 2.32984 2.0956764 2.2995403 1.4829277
1.8570553 1.996179 2.6454926 2.3518305 1.7234092 -0.2818744 2.716565 2.4841125
1.7648242 2.479712 2.194961 2.7323418 2.1391406 2.5408971 -0.06309921 2.5063014
0.04663334 1.8367925 -0.27368686 2.1555982 1.9290688 2.1919267 2.4753394 -0.1916611
2.108358 2.5775757 -0.19698025 2.2709012 2.2481146 2.4671817 2.1017842 2.6806192
1.8916577 0.07363649 1.3838794 2.2902534 1.8751597 2.198631 2.2146933 2.4135306
0.40112817 -0.24747252 2.5488417 2.5663254 2.6406574 1.9331262 2.7388391 0.007875649
2.1560078 0.56085306 2.5992184 -0.09814288 2.2547724 2.6859806 1.1214494 2.0032578
-0.23188244 0.804622 2.0590682 2.3539364 2.3974428 2.5579216 2.4882238 2.2527633
-0.11169132 2.148232 2.5950778 2.6291971 2.1933327 -0.07409742 2.6233823 2.6515083
-0.18388587 -0.15607896 2.0938458 2.513966 -0.27513283 2.205135 1.9794602 2.2946973
2.2443073 -0.2642384 1.7116419 2.1779382 2.1385741 2.3286176 -0.023191972 2.123687
2.1047583 1.9039448 1.8847873 -0.26184288 2.3634481 -0.2724266 1.655981 2.1399326
2.1871848 2.1464038 2.6706245 2.2985704 -0.18545611 2.3977342 2.1299732 2.4890773
2.7627366 2.197411 2.2420282 2.5212734 2.3629422 0.87141764 2.402971 1.8696492
1.782924 2.5902112 -0.27988142 2.1788626 2.68366 2.4533973 1.9917525 2.6466253
2.2291303 2.40302 1.5755663 -0.25193462 2.4234946 1.9543071 2.079847 1.8702055
00000000: d661 0140 f9a8 0540 f0ef 2140 d469 1d40
00000010: 492e 2a40 2764 2440 b457 f33f e206 0940
00000020: d482 0940 ae17 1b3f 1863 ec3f 776a 2740
00000030: 971d 2740 382f 0d40 6a7e 0d40 3029 51be
00000040: 5f35 e63f 493c 0340 9921 2e40 3795 fbbc
00000050: aa50 0340 856e 1a40 52ea e53f bbb0 f53f
00000060: 867a 0640 35be 1a40 fcdd 2b40 8370 1740
00000070: 9ca9 36be b8e5 99be b45f 2a40 ec8f 0d40
00000080: 6533 1f40 ad0a b3be 48bb ee3f cd9a 4f3f
00000090: f873 2540 26ee 85be 93f5 1540 76d9 1940
000000a0: c81e fd3f e8ee f33e 1ad2 1040 5761 fabc
000000b0: 51bd e9bc 09c6 ea3f 2263 d03f b5fb 2440
000000c0: cdea 1c40 883f 41be c03e 72be b811 2340
000000d0: bad4 0240 e704 2340 e282 1540 1900 1740
000000e0: cba0 96bd 8d2b 85be fb0b 0040 7504 94be
000000f0: cd9c 2b40 1d8a 44be 06ff e93e 6a5e f93f
00000100: d203 fa3f bb0b 2640 367b f33f cb6a 0e40
00000110: 5bc0 e1bd 4dc4 f03f a47f 1a40 7963 26be
00000120: 7247 45be c764 0f40 251a 543e 523b 1f40
00000130: cee9 2140 3b6d c73f 387e 0f40 c7c3 0640
00000140: 91d2 003f f8c5 fb3f 20fe 1440 8e6a ed3e
00000150: e4fc 1640 5766 0440 57c3 97be 6ded dc3f
00000160: 13e7 ef3f e499 28be c4c9 0040 5bcd 2040
00000170: a778 1140 5251 dc3f ac88 1940 5d53 ef3f
00000180: 2c8c 1e40 7426 ef3f 88f1 1140 2abb 2740
00000190: 0c03 5b3f 0568 b83f d4cc 2640 79f5 2140
000001a0: 8593 e33f 9f1e 0d40 10c8 1640 b61b 1540
000001b0: 6180 e33f cd4d 2440 c898 d83f 4f37 57be
000001c0: df83 1540 f8e8 56bd 130a 4cbe 70f2 2240
000001d0: 7b7c 54be ecce 0f40 c2e1 f93f 5a0b d23f
000001e0: 1b4f 1740 5820 27be af88 2440 4f2c 173d
000001f0: 191c 1540 901f 0640 ab2b 1340 93d0 bd3f
00000200: fdb3 ed3f cb82 ff3f c04f 2940 6484 1640
00000210: ac98 dc3f d751 90be 33dc 2d40 b3fb 1e40
00000220: c2e5 e13f 9ab3 1e40 3e7a 0c40 b0de 2e40
00000230: aee7 0840 0f9e 2240 293a 81bd 3e67 2040
00000240: 9a02 3f3d 041c eb3f af20 8cbe 52f5 0940
00000250: baeb f63f 8748 0c40 f66b 1e40 cf42 44be
00000260: 56ef 0640 00f7 2440 31b5 49be 7256 1140
00000270: 1ce1 0f40 4ee6 1d40 a283 0640 448f 2b40
00000280: d721 f23f bace 963d f622 b13f 8393 1240
00000290: 3c05 f03f 5fb6 0c40 89bd 0d40 4977 1a40
000002a0: ac60 cd3e 7069 7dbe 3920 2340 ad3e 2440
000002b0: 8800 2940 ae70 f73f 2449 2f40 de08 013c
000002c0: 08fc 0940 1194 0f3f 9859 2640 22ff c8bd
000002d0: 314e 1040 1be7 2b40 a78b 8f3f 6035 0040
000002e0: 9772 6dbe b5fb 4d3f c6c7 0340 e5a6 1640
000002f0: b46f 1940 fdb4 2340 0f3f 1f40 462d 1040
00000300: 6bbe e4bd a27c 0940 c115 2640 c444 2840
00000310: 905f 0c40 63c0 97bd 7fe5 2740 50b2 2940
00000320: 944c 3cbe 2ad3 1fbe 9201 0640 d2e4 2040
00000330: 36de 8cbe ef20 0d40 f45e fd3f 52dc 1240
00000340: bba2 0f40 414a 87be 1517 db3f 5763 0b40
00000350: 66de 0840 1208 1540 17fd bdbc 7dea 0740
00000360: 5cb4 0640 77b4 f33f b640 f13f 4510 86be
00000370: bc42 1740 807b 8bbe 2ff7 d33f a8f4 0840
00000380: d6fa 0b40 ae5e 0940 83eb 2a40 c71b 1340
00000390: 35e8 3dbe 7a74 1940 7b51 0840 0b4d 1f40
000003a0: add0 3040 62a2 0c40 647d 0f40 8b5c 2140
000003b0: 723a 1740 3a15 5f3f 47ca 1940 aa50 ef3f
000003c0: db36 e43f 05c6 2540 9e4c 8fbe 7c72 0b40
000003d0: 16c1 2b40 7604 1d40 bff1 fe3f 4f62 2940
000003e0: 12aa 0e40 14cb 1940 28ac c93f 93fd 80be
000003f0: 891a 1b40 bc26 fa3f 371c 0540 e562 ef3f

linear_hidden.weight f4 [256, 256]
0.051236074 0.025812082 0.013987178 0.036673367 -0.03931717 -0.02689471 0.044542383 0.058583245
-0.0222853 0.0087598115 -0.03622729 0.037401497 0.0003808863 0.04714912 0.028051224 0.022164896
-0.057141818 0.030114874 -0.04959048 0.010157597 -0.042213064 -0.015539619 -0.036089256 -0.05455152
-0.025193123 -0.039439373 0.031036371 -0.0602091 -0.060066 -0.034242354 -0.06313512 0.023614956
-0.024655826 0.01893045 0.04514277 -0.034477748 -0.06523234 -0.008920208 -0.055323485 -0.049432408
-0.051126048 -0.03767499 -0.012139277 -0.04342074 -0.021410137 -0.032865576 -0.011649137 0.04240751
-0.016946698 0.009475477 0.028716467 -0.006769246 -0.06751611 0.0022669788 -0.053447925 0.033113625
-0.020005435 -0.018868834 0.057822958 0.04522639 0.037278388 0.061486147 0.05855646 -0.035478488
-0.057744462 0.010273042 -0.052580807 -0.008679446 -0.016355425 -0.014871431 -0.062035114 0.026154265
-0.008162901 -0.031489443 -0.036105037 0.034778167 -0.04050218 -0.021351382 -0.04898397 -0.008693241
-0.014771528 -0.033965018 -0.026682995 0.0055906265 -0.06294401 0.05317469 -0.0032784268 -0.0058874805
-0.04056469 -0.031327326 -0.074460246 0.056901183 -0.02652535 0.054921083 -0.0380301 -0.045391623
-0.04921762 -0.061438568 -0.0039272006 0.024528079 0.018560039 -0.0331927 0.027221998 0.032799784
-0.010651426 -0.021452151 -0.008774111 -0.007854942 0.0595093 0.0020126777 0.062301792 0.032660134
-0.06210391 0.022151902 -0.0065796874 -0.029107211 0.048947252 0.0529328 0.044407714 -0.05129731
-0.009398663 -0.034483425 -0.04327033 -0.058740303 -0.0014661298 -0.05664063 0.025188632 -0.019477753
-0.024623811 -0.03463214 -0.057603136 -0.043066114 -0.055180475 0.025352187 -0.059610784 -0.012360864
-0.037612773 -0.034679893 0.046042584 0.037692502 0.01036158 0.0015370378 0.037815824 0.03750699
0.036929823 0.057848636 -0.06169542 0.047589462 0.0003388667 -0.05803808 -0.016319703 -0.04645771
0.031037824 0.01169908 -0.032338075 0.048618816 -0.012394558 -0.054231197 -0.020758517 0.0032692438
0.0037609683 -0.0545536 0.047379293 -0.05739267 -0.05092807 0.03405809 0.015837597 0.036065917
0.040513586 0.0558172 0.024360709 -0.00026755725 -0.05397441 -0.027778236 -0.028981686 0.023066377
-0.01645108 0.03684552 0.025425727 -0.052921344 -0.034680452 -0.027968602 -0.0196399 0.04620616
-0.06356523 -0.007774189 -0.01000734 0.022870777 0.004995115 0.057346582 -0.011439023 0.031290326
0.0066229627 -0.0003218371 -0.018652255 -0.016541405 0.0066066193 0.012832075 -0.029236991 0.01778322
0.021549597 0.024835378 0.015945105 0.055939198 -0.0042012706 0.058357887 -0.014881532 -0.06705155
0.007897057 -0.016378045 0.021425001 0.04156462 0.055285078 -0.0027499502 -0.013031602 0.04103755
0.03877415 -0.05848925 -0.029733662 0.0446485 0.010587168 0.021503538 0.01837345 0.04276643
0.0016544616 0.027674604 0.032133322 0.015597671 0.006176062 0.030050527 -0.010674183 0.023339929
-0.06671984 0.058139145 0.029371938 0.0110497335 -0.048833635 0.009606436 -0.047215134 0.0075622452
0.046028838 0.0483757 -0.04906919 0.038658403 0.056872975 0.009326994 -0.017426489 -0.024358802
-0.00431078 -0.035577405 -0.05225732 -0.038223907 -0.033445116 0.045959596 -0.041048463 -0.011109749
00000000: ebdc 513d dc73 d33c 7a2a 653c d036 163d
00000010: 0a0b 21bd 4b52 dcbc 1372 363d fcf4 6f3d
00000020: a98f b6bc 5085 0f3c 1163 14bd 5032 193d
00000030: b2b1 c739 701f 413d aecb e53c 2893 b53c
00000040: 8a0d 6abd 78b3 f63c 631f 4bbd 0d6c 263c
00000050: 9be7 2cbd e399 7ebc 54d2 13bd 6a71 5fbd
00000060: cf61 cebc 2e8b 21bd fd3f fe3c d19d 76bd
00000070: c407 76bd b641 0cbd fc4c 81bd 2774 c13c
00000080: 04fb c9bc 0814 9b3c a0e7 383d 8a38 0dbd
00000090: 8898 85bd 1026 12bc e19a 62bd a379 4abd
000000a0: 8c69 51bd 1751 1abd d1e3 46bc f2d9 31bd
000000b0: 5064 afbc 0e9e 06bd 06dc 3ebc 7fb3 2d3d
000000c0: cdd3 8abc 083f 1b3c cc3e eb3c 8dd0 ddbb
000000d0: e345 8abd 9891 143b 36ec 5abd 27a2 073d
000000e0: 70e2 a3bc d092 9abc c4d7 6c3d 4f3f 393d
000000f0: 39b1 183d e6d8 7b3d e6d8 6f3d e451 11bd
00000100: 7585 6cbd 4350 283c f95e 57bd 3c34 0ebc
00000110: d0fb 85bc 4da7 73bc 8818 7ebd 7841 d63c
00000120: b0bd 05bc 13fb 00bd e0e2 13bd 8d73 0e3d
00000130: 9de5 25bd 18e9 aebc 6aa3 48bd 186e 0ebc
00000140: 4704 72bc e71e 0bbd 4c96 dabc 9331 b73b
00000150: cae8 80bd b4cd 593d e0da 56bb c4eb c0bb
00000160: 2927 26bd 1551 00bd 9d7e 98bd 3711 693d
00000170: b14b d9bc eef4 603d 73c5 1bbd 91ec 39bd
00000180: 6a98 49bd 02a7 7bbd bfaf 80bb 1cef c83c
00000190: 390b 983c 12f5 07bd ab00 df3c 1159 063d
000001a0: 5283 2ebc 6cbc afbc 4ac1 0fbc 04b2 00bc
000001b0: 06c0 733d 21e7 033b 2a30 7f3d a2c6 053d
000001c0: ab60 7ebd e877 b53c 6b9a d7bb 3f72 eebc
000001d0: ea7c 483d 10d0 583d dde4 353d 211d 52bd
000001e0: dafc 19bc 7e3e 0dbd 3b3c 31bd ac99 70bd
000001f0: 272b c0ba 0100 68bd 6458 ce3c cf8f 9fbc
00000200: e0b7 c9bc 6eda 0dbd 44f1 6bbd 1866 30bd
00000210: ec04 62bd 64af cf3c 702a 74bd 3985 4abc
00000220: da0f 1abd 810c 0ebd 2697 3c3d 7463 1a3d
00000230: 9ec3 293c 6e76 c93a c4e4 1a3d eea0 193d
00000240: ba43 173d b1f2 6c3d 56b4 7cbd 2bed 423d
00000250: eba9 b139 56b9 6dbd e6b0 85bc 714a 3ebd
00000260: 0943 fe3c 7fad 3f3c ee74 04bd 8624 473d
00000270: 8b12 4bbc 8821 5ebd c40d aabc cf40 563b
00000280: 947a 763b 9873 5fbd ca10 423d 9414 6bbd
00000290: f499 50bd 7f80 0b3d d9bd 813c dbb9 133d
000002a0: 93f1 253d 94a0 643d 1c90 c73c ed46 8cb9
000002b0: 4514 5dbd 2f8f e3bc 006b edbc b3f5 bc3c
000002c0: 6ac4 86bc 54eb 163d 9d49 d03c 0dc4 58bd
000002d0: 170d 0ebd 691e e5bc dbe3 a0bc ac42 3d3d
000002e0: 7d2e 82bd a0be febb d4f5 23bc 7f5b bb3c
000002f0: 10ae a33b 40e4 6a3d bd6a 3bbc 492a 003d
00000300: 7005 d93b 3fbc a8b9 9dcc 98bc d781 87bc
00000310: 577c d83b a03d 523c 6a82 efbc 1eae 913c
00000320: c888 b03c 9073 cb3c 4f9f 823c 8020 653d
00000330: d0aa 89bb ae08 6f3d abd1 73bc 5352 89bd
00000340: a862 013c 402b 86bc 7c83 af3c aa3f 2a3d
00000350: 9b72 623d 8238 34bb 8082 55bc fd16 283d
00000360: a5d1 1e3d 6c92 6fbd 0294 f3bc 58e1 363d
00000370: cd75 2d3c 3028 b03c eb83 963c da2b 2f3d
00000380: 85da d83a dab5 e23c 3b9e 033d 608d 7f3c
00000390: 9060 ca3b 862c f63c c5e2 2ebc 6133 bf3c
000003a0: 69a4 88bd 5023 6e3d 6b9d f03c f109 353c
000003b0: c705 48bd 5064 1d3c a864 41bd b6cc f73b
000003c0: bc88 3c3d 9925 463d c6fc 48bd 4658 1e3d
000003d0: a3f3 683d 40d0 183c ffc1 8ebc 1c8c c7bc
000003e0: 7241 8dbb 9db9 11bd c60b 56bd ac90 1cbd
000003f0: bffd 08bd 2140 3c3d 6f22 28bd aa05 36bc

linear_hidden.bias f4 [256]
-0.018200697 0.03524259 0.31879586 1.3368825 0.046714623 -0.013860646 -0.066104546 -0.021659411
0.022524526 2.003158 -0.04149302 -0.0035162696 0.00082948693 0.014898725 -0.058629323 -0.04671378
0.05245796 -0.05159653 0.51907545 0.007940634 1.2318443 0.028827345 -0.05040785 -0.07308423
0.04748414 0.013622088 0.029612448 0.016521478 0.0011514211 -0.044199966 1.5204077 0.012953196
0.044614766 0.038006935 0.5786589 -0.01057156 0.023108356 0.023271386 0.037233926 0.0104071405
0.020683324 -0.00942699 0.81773406 -0.07758579 0.44109395 -0.04808149 1.0315675 -0.0014269337
0.053589642 -0.00054540695 0.034611873 1.1188046 1.1415142 0.8213803 -0.06297302 0.04477778
0.021040801 -0.07523386 -0.030456183 0.012456154 -0.002945061 -0.048160397 -0.06247046 0.0029709751
1.0041436 -0.013967257 -0.024140617 -0.07510999 -0.008804133 0.59353787 -0.06433662 -0.06645317
1.0740837 1.4329374 0.020837901 -0.043731537 1.0592669 1.1241864 0.038311657 -0.055014126
-0.00721472 0.6716319 0.043421477 -0.061966278 -0.028650396 -0.040758833 -0.040438063 -0.034140017
-0.04761966 1.2667766 -0.00083868625 0.031176971 -0.067266345 1.1973159 -0.061351262 -0.028441222
-0.048012733 0.011391259 0.03678609 0.033261977 0.03521813 0.011564101 1.1251186 -0.022568865
1.844179 -0.059457324 0.66661656 0.019402007 0.011214569 0.045327976 0.68310183 -0.0040888265
1.2813088 -0.019083649 0.64261365 -0.046010487 -0.05537319 -0.033115856 -0.04523807 -0.054205813
0.9380555 0.6370091 -0.06123764 -0.007434431 -0.026850063 -0.020787971 0.9931872 1.699996
0.032201033 -0.060719773 -0.038116574 0.02550718 0.82325375 -0.0031982325 -0.049429156 1.6382389
-0.019532096 -0.04292165 -0.011553433 -0.01590734 -0.03412614 0.46776477 -0.0150003815 0.04245168
0.048239045 1.6577796 0.41566616 -0.024399266 1.9061363 0.008588636 0.014951139 0.02471305
2.1024184 -0.0027888815 -0.04482044 0.044649333 -0.046505485 -0.039084025 0.6591121 0.057043284
-0.02968295 0.044051073 -0.047822885 -0.06819785 -0.030350247 -0.019566176 0.8591975 -0.06232571
-0.020674912 0.020449977 0.04343935 -0.031331815 -0.04348498 -0.0012911186 0.012210598 0.89679533
0.0316347 -0.00033833965 1.4898772 -0.058625616 -0.06214573 0.041701507 0.95278144 0.046178468
0.039882444 0.024533514 0.87137103 0.011924227 1.8417914 1.3789464 0.03618549 1.3367972
-0.044053067 0.5742229 0.63254774 -9.5870535e-05 0.02616439 -0.030231081 1.1176498 0.8183313
-0.0051588058 0.03047965 -0.01586902 0.77746445 0.0401911 0.90100193 0.022599291 -0.002844668
-0.053161383 0.46540573 0.008812461 -0.014561929 0.47610933 0.6025426 0.026825914 -0.00048185408
-0.0046153427 1.455772 0.023502242 -0.044796556 0.7720971 0.6945154 1.038559 -0.07044833
0.026751114 0.75681 -0.053429104 -0.0030679246 0.013387 0.03332176 0.30432215 0.052073516
-0.060491174 0.052776504 0.02123402 -0.014992588 1.230267 0.049726367 0.0098051 0.01822651
-0.025225103 1.3944489 1.0999303 0.0035799472 0.8267383 0.024050402 -0.060088586 0.0057497397
0.021874359 -0.012748032 -0.056496948 0.029290717 1.0961118 0.019754633 -0.02713992 -0.066916615
00000000: a119 95bc 895a 103d 3639 a33e f71e ab3f
00000010: d557 3f3d c317 63bc d261 87bd 146f b1bc
00000020: 5b85 b83c be33 0040 96f4 29bd 3771 66bb
00000030: ed71 593a c819 743c 4d25 70bd f356 3fbd
00000040: 28de 563d e256 53bd 21e2 043f 6f19 023c
00000050: 13ad 9d3f 5327 ec3c 7678 4ebd 2fad 95bd
00000060: bb7e 423d 2e2f 5f3c ce95 f23c 0d58 873c
00000070: 48eb 963a 060b 35bd b89c c23f a439 543c
00000080: f9bd 363d 29ad 1b3d fd22 143f 5634 2dbc
00000090: bc4d bd3c a2a3 be3c 9a82 183d b682 2a3c
000000a0: 1370 a93c a973 1abc 0557 513f 4ce5 9ebd
000000b0: 11d7 e13e 19f1 44bd 670a 843f f307 bbba
000000c0: d080 5b3d a4f9 0eba 2ec5 0d3d fd34 8f3f
000000d0: 231d 923f fb45 523f 00f8 80bd e868 373d
000000e0: c25d ac3c 3614 9abd 3f7f f9bc e614 4c3c
000000f0: ed01 41bb d643 45bd 06e1 7fbd b1b4 423b
00000100: c787 803f ecd6 64bc 8bc2 c5bc 44d3 99bd
00000110: 363f 10bc 19f2 173f ebc2 83bd 9918 88bd
00000120: 937b 893f 7e6a b73f 3fb4 aa3c d71f 33bd
00000130: 0f96 873f 57e5 8f3f afec 1c3d 7e56 61bd
00000140: 7569 ecbb 11f0 2b3f b8da 313d 5ad0 7dbd
00000150: 3cb4 eabc bcf2 26bd 62a2 25bd 67d6 0bbd
00000160: d50c 43bd bc25 a23f 48db 5bba d966 ff3c
00000170: f0c2 89bd a641 993f 764b 7bbd 91fd e8bc
00000180: 00a9 44bd 67a2 3a3c 03ad 163d b63d 083d
00000190: e340 103d 5b77 3d3c e303 903f 57e2 b8bc
000001a0: 0f0e ec3f 8689 73bd 62a7 2a3f f5f0 9e3c
000001b0: 50bd 373c d4a9 393d c3df 2e3f 90fb 85bb
000001c0: ed01 a43f 5055 9cbc 5482 243f 7e75 3cbd
000001d0: 00cf 62bd 7ea4 07bd 8e4b 39bd ea06 5ebd
000001e0: 6824 703f 0713 233f 52d4 7abd 879c f3bb
000001f0: aaf4 dbbc 894b aabc 8441 7e3f 7899 d93f
00000200: 3be5 033d 4cb5 78bd 2020 1cbd 6ff4 d03c
00000210: c2c0 523f 7099 51bb 3a76 4abd d0b1 d13f
00000220: c601 a0bc 9dce 2fbd 9c4a 3dbc 1c50 82bc
00000230: dac7 0bbd dd7e ef3e 29c4 75bc d0e1 2d3d
00000240: 4e96 453d 1f32 d43f 32d2 d43e f8e0 c7bc
00000250: 46fc f33f 5ab7 0c3c 9ff5 743c 0673 ca3c
00000260: 068e 0640 abc5 36bb a395 37bd 38e2 363d
00000270: 897c 3ebd 9216 20bd 92bb 283f 38a6 693d
00000280: a829 f3bc e66e 343d eee1 43bd 50ab 8bbd
00000290: 15a1 f8bc 3f49 a0bc 5ef4 5b3f 3e49 7fbd
000002a0: 6f5e a9bc b686 a73c 76ed 313d ca55 00bd
000002b0: 4e1d 32bd c03a a9ba f60e 483c 6194 653f
000002c0: 6393 013d 2e63 b1b9 4cb4 be3f 6a21 70bd
000002d0: 858c 7ebd 33cf 2a3d 7ce9 733f a225 3d3d
000002e0: c65b 233d 82fa c83c 2c12 5f3f d55d 433c
000002f0: d2bf eb3f 5181 b03f 3d37 143d 2c1c ab3f
00000300: fd70 34bd 4600 133f a6ee 213f 1a0e c9b8
00000310: b456 d63c 2ca7 f7bc 260f 8f3f 297e 513f
00000320: 330b a9bb 75b0 f93c bfff 81bc e907 473f
00000330: 6c9f 243d 10a8 663f 2622 b93c 9c6d 3abb
00000340: c0bf 59bd a949 ee3e 2462 103c 2895 6ebc
00000350: 9ac4 f33e 3b40 1a3f 05c2 db3c 5ca1 fcb9
00000360: 4d3c 97bb bd56 ba3f c687 c03c 987c 37bd
00000370: 28a8 453f c3cb 313f 80ef 843f 3747 90bd
00000380: 2725 db3c 4dbe 413f 7ad8 5abd 3c0f 49bb
00000390: 2655 5b3c 667c 083d 1dd0 9b3e 0a4b 553d
000003a0: 98c5 77bd 2d2c 583d f8f2 ad3c 79a3 75bc
000003b0: 6479 9d3f e0ad 4b3d 92a5 203c c34f 953c
000003c0: e0a4 cebc 4d7d b23f 84ca 8c3f 8c9d 6a3b
000003d0: 1fa5 533f 5905 c53c 731f 76bd 5068 bc3b
000003e0: db31 b33c 1fdd 50bc 5869 67bd 16f3 ef3c
000003f0: 644d 8c3f 78d4 a13c 8a54 debc 940b 89bd

linear2.weight f4 [4, 256]
0.01949979 0.043106623 0.20935765 0.22451834 0.020248152 0.05401884 -0.056609053 -0.028489865
-0.013003944 0.20671217 -0.0036168098 -0.017885104 0.02639008 -0.021264195 0.021348923 -0.011082464
0.03174416 -0.012366556 0.20254229 -0.018820137 0.20848477 0.029619148 0.008333795 -0.036622282
0.02969809 -0.013366237 0.025963187 -0.031276334 -0.02028809 -0.036622483 0.21269973 0.053243093
-0.00564264 0.043542624 0.156284 0.0408449 -0.0010761099 -0.027444623 0.052501135 0.025066752
-0.04354042 0.023679964 0.20472588 -0.03216228 0.115886025 0.003214955 0.20326874 0.019189734
0.017991377 0.006982056 -0.03747901 0.18628739 0.19979033 0.15113182 0.05269049 -0.028793724
-0.0034858584 -0.013272738 0.032725804 0.004485095 0.043045986 0.009828945 0.01812087 -0.018774785
0.2059412 -0.052631598 -0.011551954 -0.024112629 -0.03382288 0.21826087 0.023937762 0.033215724
0.21482061 0.21897691 0.02984434 0.023219476 0.18771516 0.19030398 -0.005465336 -0.010992085
0.037721448 0.16029595 0.013803701 0.034713104 0.0046756417 0.017037714 -0.03027194 0.00014564637
0.03421191 0.2260271 -0.033371642 -0.024164598 0.051159006 0.1646389 -0.05106432 -0.043370493
0.01995702 0.018427338 0.057680637 -0.061208658 -0.035418823 0.0015763842 0.2416933 0.0063498905
0.22736353 0.006862335 0.14482087 -0.01816084 -0.053840153 -0.042461734 0.16639218 -0.04431705
0.20110896 0.0041990117 0.13439102 0.046675596 0.05660461 0.015668757 -0.042629078 -0.0027975433
0.18989448 0.17680149 -0.0046812594 -0.008728106 -0.029328838 -0.040733747 0.23266013 0.20288612
-0.05938647 -0.016039988 -0.048579633 -0.043429464 0.16590524 -0.048200507 -0.0164488 0.20343482
-0.051928602 -0.011999483 0.041078765 -0.05712325 -0.007544102 0.15862323 0.030283535 -0.024162037
0.008042803 0.19141226 0.16450585 0.002994765 0.20265849 -0.034021713 -0.057836622 -0.01584896
0.21887232 -0.029035194 -0.007934867 -0.03534697 0.0009766987 0.013471916 0.1667765 0.019809842
0.0150376195 0.025925845 -0.0042265654 0.0236032 -0.045600478 0.025812924 0.2354909 -0.036123153
-0.053552266 -0.033238087 0.0025740121 -0.010079849 -0.0324808 0.022224389 -0.03810306 0.20119737
-0.010713541 -0.0053581162 0.21686307 -0.015169841 -0.031387143 -0.03496461 0.18541695 -0.014815732
-0.03194758 -0.029640745 0.23838885 -0.009651094 0.2192262 0.21009715 0.010500021 0.20494676
-0.04865691 0.11996363 0.1930167 0.039216593 0.049345084 0.027840866 0.17817667 0.16208993
-0.00857022 0.009850189 -0.0009833843 0.15701044 0.010500073 0.19204567 0.039547376 0.023209253
-0.041512333 0.22039731 -0.0072571016 -0.048707962 0.16457392 0.12969494 -0.030147284 -0.015029157
0.012887 0.18762635 -0.041572224 -0.0068900366 0.21358576 0.16846037 0.16217755 -0.03892768
0.022850607 0.22783886 0.035538316 0.005298838 0.0016808637 0.048306953 0.19916841 0.010870377
0.041305523 -0.047874056 -0.04248654 0.021759113 0.17958161 -0.057127178 -0.038517922 -0.034913924
-0.05370442 0.21440777 0.19933127 0.025407063 0.15025899 0.01979033 -0.021658748 0.012743696
0.0015524849 -0.036971804 -0.04177077 0.02610913 0.23641166 0.038030855 -0.045218125 -0.033204064
00000000: 06be 9f3c 9290 303d da61 563e 23e8 653e
00000010: 74df a53c dc42 5d3d e5de 67bd 9463 e9bc
00000020: 7f0e 55bc 5bac 533e 0008 6dbb c883 92bc
00000030: 0230 d83c 4032 aebc f0e3 ae3c 3993 35bc
00000040: 2a06 023d 189d 4abc 3f67 4f3e b02c 9abc
00000050: 087d 553e dba3 f23c 788a 083c 3f01 16bd
00000060: 6949 f33c 10fe 5abc c0b0 d43c 9d1b 00bd
00000070: 3533 a6bc 7501 16bd f5cd 593e 6e15 5a3d
00000080: e5e5 b8bb c059 323d ea08 203e fb4c 273d
00000090: 420c 8dba 8cd3 e0bc 6e0b 573d ca58 cd3c
000000a0: 7057 32bd 7cfc c13c a9a3 513e 98bc 03bd
000000b0: a755 ed3d ffb1 523b ae25 503e ca33 9d3c
000000c0: a762 933c bbc9 e43b 9783 19bd 1fc2 3e3e
000000d0: d695 4c3e 4dc2 1a3e fcd1 573d d1e0 ebbc
000000e0: 0073 64bb e675 59bc 7e0b 063d b4f7 923b
000000f0: fd50 303d 9509 213c 3872 943c 94cd 99bc
00000100: 40e2 523e 3b94 57bd 6844 3dbc d987 c5bc
00000110: dc89 0abd c77f 5f3e 2019 c43c 360d 083d
00000120: eff9 5b3e 7c3b 603e 1e7c f43c c536 be3c
00000130: 6738 403e 0cdf 423e 9016 b3bb 2518 34bc
00000140: ce81 1a3d 9f24 243e eb28 623c 542f 0e3d
00000150: 2036 993b ad92 8b3c dcfc f7bc a6b8 1839
00000160: ca21 0c3d a673 673e b4b0 08bd d6f4 c5bc
00000170: 1b8c 513d 1a97 283e d228 51bd 42a5 31bd
00000180: e87c a33c eef4 963c 8842 6c3d eeb5 7abd
00000190: 5413 11bd ad9e ce3a 737e 773e be12 d03b
000001a0: fcd1 683e 70dd e03b ec4b 143e 0bc6 94bc
000001b0: 7e87 5cbd 5bec 2dbd b662 2a3e cc85 35bd
000001c0: 82ef 4d3e dd97 893b cd9d 093e e92e 3f3d
000001d0: 3cda 673d c45b 803c d49b 2ebd fd56 37bb
000001e0: b373 423e 730b 353e 4065 99bb 5400 0fbc
000001f0: 0843 f0bc 6ed8 26bd 753e 6e3e 61c1 4f3e
00000200: 3a3f 73bd 4b66 83bc 70fb 46bd 18e3 31bd
00000210: 10e3 293e e56d 45bd a2bf 86bc 3851 503e
00000220: 16b3 54bd 7b99 44bc 3542 283d 12fa 69bd
00000230: 8434 f7bb 216e 223e 2d15 f83c 77ef c5bc
00000240: f6c5 033c 9301 443e 3974 283e d243 443b
00000250: b585 4f3e 5a5a 0bbd 18e6 6cbd aed5 81bc
00000260: 1120 603e 37db edbc 3f01 02bc fcc7 10bd
00000270: 9204 803a 50b9 5c3c 75c7 2a3e 4048 a23c
00000280: 5960 763c 7062 d43c 007f 8abb 805b c13c
00000290: 91c7 3abd a075 d33c 8724 713e dff5 13bd
000002a0: 9f59 5bbd a924 08bd c2b0 283b f325 25bc
000002b0: 960a 05bd ec0f b63c f411 1cbd af06 4e3e
000002c0: d987 2fbc 2393 afbb 5a11 5e3e ed8a 78bc
000002d0: ce8f 00bd 0d37 0fbd f1dd 3d3e afbd 72bc
000002e0: 77db 02bd 26d1 f2bc 351c 743e 9f1f 1ebc
000002f0: d57c 603e b523 573e 4808 2c3c 90dd 513e
00000300: 784c 47bd 7eaf f53d 2ba6 453e 94a1 203d
00000310: 121e 4a3d 8712 e43c f273 363e e7fa 253e
00000320: 1c6a 0cbc b062 213c e7e4 80ba 58c7 203e
00000330: 8008 2c3c 9fa7 443e 6efc 213d 5521 be3c
00000340: d608 2abd d5af 613e fbcc edbb 0082 47bd
00000350: 1186 283e c0ce 043e 70f7 f6bc da3c 76bc
00000360: ff23 533c 1f21 403e a347 2abd d1c5 e1bb
00000370: 3ab6 5a3e e080 2c3e df11 263e a272 1fbd
00000380: 3231 bb3c 974e 693e a090 113d e0a1 ad3b
00000390: 6d50 dc3a 83dd 453d cef2 4b3e aa19 323c
000003a0: fb2f 293d 9617 44bd 5e06 2ebd 2b40 b23c
000003b0: 3ee4 373e 30fe 69bd f8c4 1dbd e701 0fbd
000003c0: 2af9 5bbd b68d 5b3e 7f1d 4c3e 7922 d03c
000003d0: 7edd 193e 551f a23c b06d b1bc efca 503c
000003e0: c07c cb3a bf6f 17bd d417 2bbd d0e2 d53c
000003f0: e615 723e 3ec6 1b3d a436 39bd fc00 08bd

linear2.bias f4 [4]
0.15424395 0.1054954 0.14976218 0.101790294
00000000: 20f2 1d3e f90d d83d 425b 193e 6e77 d03d
