model/model2.pth (torch, 19264 bytes, 4 tensors)

linear1.weight f4 [256, 12]
0	0xc000dc4c	-2.0134459
1	0xc01465e3	-2.3187187
2	0xbf643f98	-0.89159536
3	0xbff5b739	-1.919654
4	0xbeb47f3c	-0.35253322
5	0x3ee0e04e	0.4392113
6	0xbe2d1c0e	-0.16905233
7	0xbf01dff2	-0.5073234
8	0x3e1b8266	0.15186462
9	0xc0c2154b	-6.0650992
10	0x4182f8a4	16.371407
11	0xc0afe504	-5.496706
12	0xc0da8a98	-6.829418
13	0x3ffa8d5b	1.9574388
14	0xc0de3e3c	-6.945097
15	0xbf323041	-0.6960488
16	0xbe8c15ac	-0.27360284
17	0xbe3cd2ca	-0.18439785
18	0xbeb64db5	-0.3560616
19	0xbfd56be6	-1.6673553
20	0xbd3ad74c	-0.04561548
21	0xc0ab0585	-5.344424
22	0x40e7c321	7.2425694
23	0xc1100746	-9.001776
24	0xbed3663b	-0.41288933
25	0xc0196043	-2.3965003
26	0xbf06be2d	-0.52633935
27	0xc02fa7c0	-2.7446136
28	0xbe8f647c	-0.2800635
29	0x3f22d912	0.63612473
30	0x3e440444	0.19142252
31	0xbdff286b	-0.12458881
32	0xbd6f1050	-0.058365166
33	0xc0b671fc	-5.701414
34	0x4195d7b5	18.730326
35	0xc0b9eee7	-5.810413
36	0xbe96cc9a	-0.29452974
37	0xbf545d0e	-0.8295449
38	0x409de110	4.9337234
39	0xbf2bcbfc	-0.6710813
40	0x3e9ece5f	0.31016824
41	0x3eb9064b	0.36137614
42	0x3d949ac2	0.0725608
43	0x3e931896	0.28729695
44	0xbdd481f6	-0.103763506
45	0x3ecab665	0.3959228
46	0x41fed553	31.854162
47	0xc07212fe	-3.7824092
48	0x3f083304	0.53202844
49	0xc09461e6	-4.6369505
50	0xc0a862b9	-5.262051
51	0xc07c523f	-3.94252
52	0x3ed2fc71	0.41208223
53	0xbe3c983f	-0.18417452
54	0xbf3815c1	-0.71908194
55	0xbede8075	-0.4345738
56	0x3d224260	0.03961408
57	0xc10f5eb8	-8.960625
58	0x4127eb16	10.494894
59	0xc0e7fdc6	-7.249728
60	0x3c5a8f34	0.013339806
61	0xbfcd0010	-1.6015644
62	0x4013b7ed	2.308101
63	0xbfd5662e	-1.6671808
64	0xbda735bc	-0.08164546
65	0x3ebd762b	0.37004218
66	0xbe17d826	-0.14828548
67	0x3eb04bc7	0.34432814
68	0xbd6322ec	-0.055453226
69	0xc00b06c3	-2.1722877
70	0x41c5de8c	24.733665
71	0xc08b8454	-4.3599033
72	0xbf8252e4	-1.0181546
73	0xbfbd370f	-1.4782428
74	0x4009bcc9	2.1521475
75	0xbfc1f1a4	-1.5151868
76	0x3e6e0fca	0.2324821
77	0x3f207e14	0.6269238
78	0x3d3aabf0	0.04557413
79	0xbf04a3e6	-0.5181259
80	0xbdf5c6b2	-0.12000789
81	0xc022d6b4	-2.5443544
82	0x41bb3ee7	23.405714
83	0xc0a336dd	-5.100447
84	0xbdf510c0	-0.119660854
85	0xbfb5c3c3	-1.4200367
86	0x406babae	3.6823535
87	0xbf62dbd2	-0.8861667
88	0x3e981067	0.29700014
89	0x3f23a641	0.6392556
90	0x3c502540	0.012704194
91	0x3f05f6bf	0.5232963
92	0xbe29f38c	-0.16596812
93	0xbf81496c	-1.0100532
94	0x41e705d0	28.877838
95	0xc0809949	-4.0187116
96	0xc0e933dd	-7.287581
97	0x40b40e10	5.6267166
98	0xc0fd6ddb	-7.91966
99	0x408878c8	4.264744
100	0xbfc33def	-1.5253276
101	0xbf86bc4c	-1.0526214
102	0x3e92dd2f	0.28684375
103	0xbfcb4d0f	-1.5882891
104	0xbe5caa12	-0.21549252
105	0xc0b59120	-5.6739655
106	0x4080213b	4.0040565
107	0xc0c3722b	-6.1076865
108	0xc00f9d14	-2.2439623
109	0xc02e76be	-2.7259974
110	0xc015de76	-2.341703
111	0xc0187f5c	-2.3827734
112	0xbf04a506	-0.51814306
113	0x3eb0409c	0.34424293
114	0x3e59aab2	0.21256521
115	0xbf3fb578	-0.74886274
116	0x3e43c826	0.1911932
117	0xc0deae59	-6.9587827
118	0x415d02bf	13.81317
119	0xc0c667a7	-6.200153
120	0xc108d0f2	-8.551012
121	0x410b69bb	8.713313
122	0xc1198bb4	-9.596607
123	0x40d953f3	6.7914977
124	0xbf75202e	-0.9575223
125	0xbf022df2	-0.50851357
126	0xbf0c9610	-0.5491648
127	0xbf5d8da8	-0.86544275
128	0xbcbfa9d0	-0.023396403
129	0xc0dd8bd3	-6.9233184
130	0x40862e19	4.193127
131	0xc0f9bb52	-7.8041162
132	0xc0d30cf1	-6.5953298
133	0x3fc4a250	1.5362034
134	0xc0b7912e	-5.736472
135	0xbe87ef42	-0.26549727
136	0xbf019eeb	-0.50633115
137	0xbf2c8b8d	-0.6740044
138	0x3e148055	0.1450208
139	0xbfe11db4	-1.758719
140	0xbdf0fdc6	-0.117671534
141	0xc0745ee7	-3.8182924
142	0x40be5e79	5.9490323
143	0xc0e5880e	-7.172858
144	0xbf083859	-0.5321098
145	0xbf287716	-0.6580671
146	0x40a937dd	5.2880692
147	0xbe94064b	-0.2891105
148	0xbe377915	-0.17917283
149	0x3ea5e6b4	0.32402575
150	0x3e407105	0.18793114
151	0x3ef44b2d	0.47713605
152	0xbe1e1964	-0.15439373
153	0x3f71f587	0.9451527
154	0x4205412e	33.313652
155	0xc070a739	-3.7602065
156	0xbfe67299	-1.8003722
157	0xbfdf1aa3	-1.7430004
158	0xbe1e310c	-0.15448397
159	0xbfa3e07c	-1.2802882
160	0xbdf43db8	-0.119258344
161	0xbe889b58	-0.26681018
162	0x3ed1363e	0.40861696
163	0x3e017320	0.12641573
164	0xbe619b98	-0.2203201
165	0xc0af887e	-5.4854116
166	0x4184c236	16.59483
167	0xc0a88674	-5.2664127
168	0xbef9f776	-0.4882161
169	0xbed57991	-0.4169431
170	0x40a034c8	5.006443
171	0xbeb15c41	-0.34640697
172	0xbe34c086	-0.17651567
173	0x3ea38995	0.31940904
174	0x3ec727c7	0.38897535
175	0x3f028bec	0.50994754
176	0x3e485bd0	0.19566274
177	0x3f72df95	0.9487241
178	0x4203f45d	32.988636
179	0xc054c527	-3.3245332
180	0xbe681fc4	-0.22668368
181	0xbbac5dc0	-0.0052601993
182	0xbd1909f0	-0.037362993
183	0xbe443aa0	-0.19162989
184	0x3e825ec2	0.2546292
185	0xbc28b620	-0.010297328
186	0x3e149ad2	0.14512184
187	0xbe1a4c87	-0.15068255
188	0xbd02ad18	-0.031903356
189	0xbe471bca	-0.19444194
190	0xbcd44ce0	-0.025915563
191	0xbe7237c0	-0.2365408
192	0xbf5f8465	-0.87311393
193	0xbf9bff16	-1.2187221
194	0x400f9f0c	2.2440825
195	0xbfb2cfea	-1.39697
196	0x3cbc4819	0.022983598
197	0x3f3de5fe	0.74179065
198	0x3d7b1334	0.06129761
199	0xbe48d885	-0.19613846
200	0xbd21d9b0	-0.039514244
201	0xc000bdcb	-2.011584
202	0x41c5931c	24.69683
203	0xc08f0165	-4.46892
204	0xbf732e11	-0.94992167
205	0xbf9e8685	-1.2384802
206	0x405c632b	3.4435527
207	0xbf292bc6	-0.6608242
208	0x3d0b69f3	0.034036588
209	0x3f0f91af	0.5608167
210	0x3ef98630	0.4873519
211	0xbd818cad	-0.0632566
212	0xbe7daf98	-0.24774015
213	0xbf83da20	-1.0300941
214	0x41e9c1d9	29.219652
215	0xc08780d5	-4.2344766
216	0xbf0d3c1b	-0.5516984
217	0xbf53e868	-0.827765
218	0x4081adce	4.0524664
219	0xbf715112	-0.9426433
220	0xbcec8509	-0.02887203
221	0x3e0aa3c3	0.13539033
222	0x3ed43614	0.41447508
223	0x3f255348	0.645802
224	0xbe1949d4	-0.1496957
225	0xbf112cc1	-0.56708914
226	0x41ec43b6	29.533062
227	0xc0704697	-3.7543085
228	0x3c885c50	0.01664558
229	0xbda91cf4	-0.082574755
230	0x3d37c2f8	0.04486367
231	0xbe25aa5d	-0.1617827
232	0x3e259ab4	0.16172296
233	0xbd6df308	-0.0580931
234	0x3db6c154	0.08923593
235	0xbe346b3e	-0.17619035
236	0xbdc664be	-0.09687184
237	0xbd795db8	-0.060880393
238	0xbe9016de	-0.28142446
239	0x3cb04f20	0.021522105
240	0x3e1dbacb	0.15403287
241	0xc01a0470	-2.4065208
242	0xbeb77c9c	-0.35837257
243	0xc00eb66c	-2.2298841
244	0x3dad8a4c	0.08473644
245	0x3dcedaea	0.10100348
246	0x3ddd49ef	0.10805117
247	0x3e546fb1	0.20745732
248	0x3e5a6efc	0.213314
249	0xc0972484	-4.7232075
250	0x419a0077	19.250227
251	0xc0a979db	-5.296125
252	0x3e842876	0.2581212
253	0xc0891416	-4.283702
254	0xc0832030	-4.097679
255	0xc06f49ee	-3.7388873

linear1.bias f4 [256]
0	0x4184acff	16.58447
1	0x40e719a7	7.2218814
2	0x4193aa2b	18.45809
3	0x41ff389f	31.902647
4	0x412415e4	10.255344
5	0x41c2e002	24.359379
6	0x41b9f179	23.242907
7	0x41e7701c	28.92974
8	0x407ef29b	3.9835575
9	0x4160ce21	14.050324
10	0x4091f7dd	4.5615067
11	0x40b59da1	5.675492
12	0x4205d0b4	33.45381
13	0x4184bcae	16.592129
14	0x4204aadd	33.16686
15	0xbe80eda6	-0.2518131
16	0x41c90f06	25.132336
17	0x41e65a6f	28.794157
18	0x41eaffee	29.374966
19	0xbd7a0d90	-0.06104809
20	0x4199e0c3	19.234747
21	0x41159d18	9.350853
22	0x41af9bc9	21.951067
23	0x4176d8ba	15.427912
24	0x4058fea3	3.3905418
25	0x41aaac19	21.334032
26	0x41c9af25	25.21052
27	0x41a94ca2	21.162418
28	0x41e1f327	28.243727
29	0x4156829c	13.406887
30	0xbd09af00	-0.03361416
31	0x40ca0496	6.31306
32	0x41368ef7	11.409904
33	0x40de08d5	6.938578
34	0xbdc71291	-0.09720338
35	0x41dcba91	27.591097
36	0x40d8ada2	6.7711954
37	0xbe9ff33a	-0.31240255
38	0x40f5c17d	7.679869
39	0x40acfd5b	5.405927
40	0x40d5872a	6.6727495
41	0xbdefceee	-0.117093906
42	0x41c65e82	24.796146
43	0x418240d8	16.281662
44	0x41d0f6b5	26.120462
45	0x418fec47	17.99037
46	0x41bd5c4a	23.670063
47	0x41956a7a	18.67699
48	0x41e1353b	28.150991
49	0x419d211d	19.641169
50	0x41f92453	31.142736
51	0x3bc47598	0.0059954636
52	0x41c8c00a	25.09377
53	0x4102151d	8.130155
54	0xbea1ad4a	-0.31577522
55	0x41e03cee	28.02975
56	0x41cc9a6f	25.575407
57	0x41e4539b	28.540823
58	0x41d03e44	26.030403
59	0x40590dcc	3.391467
60	0xbdcb8ce3	-0.099389814
61	0xbeb0d2fb	-0.34535965
62	0x41bbe507	23.48683
63	0xbe7220f9	-0.2364539
64	0x41d6fc86	26.873302
65	0x41bef971	23.871798
66	0xbe6de8e7	-0.23233376
67	0x4057cc0b	3.3718288
68	0x41dd31c3	27.649298
69	0x416edf86	14.929571
70	0x4132b9ec	11.170391
71	0x40886bfb	4.263181
72	0x4042f898	3.046423
73	0x40bcf001	5.9042974
74	0xbe29d80c	-0.16586322
75	0x4098382e	4.756858
76	0x41f50c47	30.630995
77	0x418bafe7	17.46089
78	0x41ef645c	29.924004
79	0x40a7d6a4	5.2449512
80	0x41bd9c1c	23.701225
81	0x41e529cb	28.645407
82	0x419fa51d	19.955622
83	0x41ab9424	21.447334
84	0x412ebf1d	10.9216585
85	0x41c7beeb	24.968222
86	0x41da3098	27.273727
87	0xbe5cb81d	-0.21554609
88	0x4165800e	14.343763
89	0x41ce9289	25.82155
90	0x415ee30e	13.930433
91	0x41c6cd34	24.850197
92	0x41abe47e	21.486568
93	0x413707fb	11.439448
94	0x41de8bf9	27.818346
95	0x410672ed	8.403058
96	0x41a1d2a9	20.227861
97	0x4185105e	16.632992
98	0x41eac43f	29.345823
99	0x40bb1865	5.846728
100	0x41f7c918	30.97319
101	0xbe80fc1c	-0.25192344
102	0x4094221f	4.629165
103	0x410c14ef	8.755111
104	0x41f5163d	30.635859
105	0x41ea7a9e	29.309872
106	0x41a7a98a	20.957783
107	0x41efdb6d	29.982141
108	0x41fb137a	31.38451
109	0x4184fae6	16.622509
110	0x41eca49b	29.580374
111	0x41eb58db	29.418386
112	0x41bc4985	23.535898
113	0x413b613c	11.711239
114	0x41295e63	10.585544
115	0xbe5ec278	-0.21753871
116	0x41f31728	30.386307
117	0x41ea412c	29.281822
118	0x42019c9d	32.402943
119	0x410a03d4	8.625935
120	0x41e0ce84	28.100838
121	0x40eb0059	7.3437924
122	0x3e2462e9	0.16053356
123	0x41bc2b09	23.521013
124	0x41988058	19.062668
125	0x4204fe76	33.248497
126	0x41f09d48	30.076797
127	0x415644e9	13.391824
128	0x4192698a	18.301533
129	0x418085a2	16.06525
130	0xbe712656	-0.2354978
131	0x41d77a8d	26.93484
132	0x4199443a	19.158314
133	0x41d97cee	27.186
134	0x40ae467b	5.4461036
135	0x41b0849f	22.064756
136	0x41c660f6	24.797344
137	0xbe89c57d	-0.26908484
138	0x419f2736	19.894146
139	0x4180a3c8	16.079971
140	0x3db8abe0	0.090171576
141	0x414717c4	12.443302
142	0x4155fbf8	13.374016
143	0xbe204dd4	-0.15654689
144	0x40f471d6	7.638896
145	0x41f71036	30.882915
146	0x41e72c84	28.896736
147	0x40d8406f	6.7578654
148	0x41061af7	8.381583
149	0x41e907b2	29.128757
150	0xbe87ed46	-0.26548213
151	0x4171c86c	15.111431
152	0x41af2c47	21.89662
153	0x418d6ae0	17.677185
154	0x41208489	10.032357
155	0x408f196f	4.4718547
156	0x41e79a8a	28.950459
157	0x4182f6a9	16.37044
158	0xbe8f4e99	-0.27989653
159	0x41d44f7a	26.538807
160	0x40acfe51	5.4060445
161	0x416c8f12	14.784929
162	0x41b93821	23.152407
163	0xbdd860a0	-0.10565305
164	0x40fd8304	7.922243
165	0x4159fcdc	13.624233
166	0x3f8bbb27	1.0916489
167	0x411cb918	9.795189
168	0x4120547b	10.020625
169	0x41297ad2	10.592485
170	0x418fcefc	17.976067
171	0x41def992	27.87186
172	0x41ea3b03	29.278814
173	0xbe76d36b	-0.24104087
174	0x41ab798c	21.43435
175	0x413c5975	11.77184
176	0x407ca508	3.9475727
177	0x41dfbc99	27.967089
178	0x413f7a4c	11.967358
179	0x41eba406	29.45509
180	0x417ab141	15.668275
181	0x41968525	18.815012
182	0x42034872	32.820747
183	0x40989677	4.7683673
184	0x41fc4326	31.532787
185	0xbe866b83	-0.262539
186	0x40782a45	3.87758
187	0xbe0edf01	-0.13952257
188	0x41e61812	28.761753
189	0x41d24d7a	26.28783
190	0x413b1699	11.693017
191	0x40b2828d	5.5784364
192	0x41d9cf3a	27.226185
193	0x4189205e	17.140804
194	0x41c293bf	24.322142
195	0xbe8194b1	-0.25308755
196	0x41d7bb3d	26.966425
197	0x41b4d008	22.601578
198	0x40963a90	4.6946487
199	0x418f5e5d	17.921076
200	0x41688719	14.532983
201	0x419ec8d7	19.848066
202	0x41e6a094	28.828407
203	0x41ac509e	21.539364
204	0xc0b58c02	-5.673341
205	0x40a13e56	5.0388594
206	0x409c971d	4.8934464
207	0x41627e2a	14.155802
208	0x40801a9e	4.003249
209	0x41bddd48	23.733047
210	0xbe67ba4e	-0.22629663
211	0x41f10aea	30.13033
212	0x4200041d	32.004017
213	0x40602ab5	3.5026066
214	0xbdadd6c5	-0.0848823
215	0x4138f93c	11.560848
216	0x40d10236	6.53152
217	0x41dbea89	27.48952
218	0x420302ef	32.752865
219	0xbdbff50e	-0.09372912
220	0x41c34eb5	24.413431
221	0x413795d5	11.47408
222	0xbe919508	-0.28434014
223	0x41dfa37f	27.954832
224	0xbe91a9c2	-0.28449827
225	0x41e0fa37	28.122175
226	0x41378916	11.470968
227	0x41feaf82	31.835697
228	0x41a2c7f1	20.347628
229	0x41b61945	22.762339
230	0x4089ed8c	4.3102474
231	0x4204b494	33.176346
232	0x40ab942a	5.3618364
233	0x41d58e78	26.694565
234	0x40731243	3.7979896
235	0x419dcef0	19.726044
236	0x4109e66b	8.618754
237	0x41e9b2af	29.212248
238	0x41f323c0	30.392456
239	0x411b0a30	9.689987
240	0x41cbd26f	25.47775
241	0x418a7263	17.305853
242	0x41a35ec4	20.421272
243	0x42008898	32.133392
244	0x41f9cd65	31.22529
245	0x41b0d97c	22.106194
246	0x41e0b2c8	28.087296
247	0x41e6f6fc	28.870598
248	0x41b46fa2	22.554508
249	0x41f0a799	30.081835
250	0x412041ff	10.016112
251	0x41ebd744	29.48011
252	0x41e08f49	28.069963
253	0x410ce5a1	8.806062
254	0x4181fb55	16.24772
255	0x42044abb	33.07298

linear2.weight f4 [4, 256]
0	0x3f6b9ff1	0.92040926
1	0x3f8028e9	1.0012485
2	0x3f5b0172	0.8554908
3	0x3f5769af	0.84145635
4	0x3f288fe5	0.65844566
5	0x3f45896f	0.7716283
6	0x3f59b20a	0.8503729
7	0x3f537621	0.82602125
8	0x40092419	2.1428282
9	0x3f60af35	0.87767345
10	0x40169494	2.3528185
11	0x3fccdd73	1.6005081
12	0x3f4fa448	0.8111005
13	0x3f66b46a	0.9011904
14	0x3f516f3f	0.81810373
15	0xbcb21f3c	-0.02174341
16	0x3f4f3900	0.8094635
17	0x3f656739	0.8961063
18	0x3f614a99	0.8800445
19	0xbd60fdda	-0.05492959
20	0x3f432284	0.7622454
21	0x3f3de42d	0.74176294
22	0x3f513c73	0.81732863
23	0x3f4ab0d4	0.7917607
24	0x40332fae	2.7997851
25	0x3f5a0b35	0.8517335
26	0x3f4b2153	0.79347724
27	0x3f50c937	0.8155703
28	0x3f4fe3da	0.8120705
29	0x3f3ce5e8	0.7378831
30	0x3d10a666	0.03531494
31	0x3fe929eb	1.8215917
32	0x3f27e925	0.65590125
33	0x3eaab9c6	0.3334486
34	0x3d118c65	0.03553428
35	0x3f5a2b84	0.8522265
36	0x3f223a51	0.63370234
37	0xbcbf6b5b	-0.02336662
38	0x3f379c6f	0.71723074
39	0x3f8e52be	1.1119001
40	0x3f948d07	1.1605538
41	0xbbcfcdb5	-0.006341661
42	0x3f603baf	0.8759107
43	0x3f47a9c4	0.77993417
44	0x3f5be20a	0.85891783
45	0x3f38b75f	0.721548
46	0x3f602759	0.8756004
47	0x3f5c81a5	0.8613532
48	0x3f562f29	0.8366571
49	0x3f474e27	0.77853626
50	0x3f5d6dfb	0.8649594
51	0x3973c1d4	0.00023246492
52	0x3f54ad51	0.8307696
53	0x3f35c817	0.7100844
54	0xbd3028ef	-0.043007787
55	0x3f50b8e6	0.8153213
56	0x3f6d20dd	0.9262827
57	0x3f4d97a7	0.8030953
58	0x3f51cc2b	0.8195216
59	0x4071f94b	3.7808406
60	0xbabc381d	-0.0014359985
61	0xbc1a984d	-0.009435725
62	0x3f4ca89a	0.79944766
63	0xbd48f766	-0.049064063
64	0x3f58e590	0.84725285
65	0x3f5c5ca4	0.8607886
66	0x3d09202c	0.033477947
67	0x40392322	2.8927693
68	0x3f5dee6c	0.8669193
69	0x3f6b4c79	0.91913563
70	0x3f418d78	0.7560649
71	0x403f4f78	2.9892254
72	0x40490103	3.1406868
73	0x3f8fd616	1.1237209
74	0xbcb084e4	-0.021547742
75	0x3f802d8d	1.0013901
76	0x3f5c6c99	0.86103207
77	0x3f5cbd8e	0.8622674
78	0x3f48c0c2	0.78419125
79	0x4014ea8f	2.3268163
80	0x3f623293	0.8835842
81	0x3f583ab4	0.84464574
82	0x3f534ecd	0.82542115
83	0x3f58f27b	0.84744996
84	0x3f2b9284	0.6702044
85	0x3f508768	0.81456614
86	0x3f608411	0.8770152
87	0xbd11ba88	-0.03557828
88	0x3f5bb863	0.85828227
89	0x3f5bf8a8	0.85926294
90	0x3f3b1bc1	0.73089224
91	0x3f5d3a08	0.86416674
92	0x3f5de040	0.86670303
93	0x3f5598cf	0.8343629
94	0x3f593e04	0.84860253
95	0x3f379724	0.71715
96	0x3f50370d	0.81334
97	0x3f462ce4	0.7741225
98	0x3f4303f7	0.76177925
99	0x3fa96941	1.3235246
100	0x3f588a22	0.84585774
101	0x3bb641d5	0.005562047
102	0x3f87d712	1.0612509
103	0x3f353770	0.70787716
104	0x3f5a8983	0.85366076
105	0x3f4d773d	0.8026007
106	0x3f621091	0.8830653
107	0x3f5b220a	0.85598814
108	0x3f4eb07b	0.8073804
109	0x3f56e049	0.8393598
110	0x3f4eb12a	0.8073908
111	0x3f4f3f86	0.80956304
112	0x3f48011c	0.7812669
113	0x3f4572d1	0.7712832
114	0x3f3aa94a	0.72914565
115	0x3c88cd43	0.016699439
116	0x3f50930c	0.81474376
117	0x3f58364e	0.8445786
118	0x3f4e587a	0.80603755
119	0x3ec70fc6	0.38879222
120	0x3f654ac1	0.8956719
121	0x3f2c8948	0.67396975
122	0xbc01096d	-0.007875782
123	0x3f3df941	0.74208456
124	0x3f446120	0.767107
125	0x3f4ed850	0.80798817
126	0x3f529888	0.82263994
127	0x3f4774f6	0.77912843
128	0x3f536a01	0.82583624
129	0x3f66531e	0.89970577
130	0x3d2220a1	0.0395819
131	0x3f70f1d0	0.94118977
132	0x3f695cfd	0.91157514
133	0x3f58ad1c	0.84639144
134	0x3fca4d9e	1.5804937
135	0x3f66f44d	0.90216523
136	0x3f413c3f	0.75482553
137	0x3d3075ea	0.0430812
138	0x3f624c41	0.88397604
139	0x3f655f8e	0.8959893
140	0xbcbf9c97	-0.023390098
141	0x3f514c69	0.8175722
142	0x3f3e07aa	0.74230444
143	0xbc19fd41	-0.009398759
144	0x3f0cab1f	0.5494861
145	0x3f5b3cd8	0.85639715
146	0x3f4ea5a1	0.8072148
147	0x3f2f5f69	0.6850496
148	0x3f017ace	0.5057801
149	0x3f5649d3	0.83706397
150	0xbcdab9b4	-0.026699878
151	0x3f61fcec	0.88276553
152	0x3f5aa86a	0.8541323
153	0x3f5cb5ba	0.8621479
154	0x3f32ed47	0.69893306
155	0x403af3d1	2.9211314
156	0x3f49013a	0.78517497
157	0x3f4ba3d7	0.79546875
158	0xbd0db399	-0.034595106
159	0x3f55a5cc	0.8345611
160	0x3f7c540b	0.9856574
161	0x3f5c4d52	0.8605548
162	0x3f6485e4	0.892668
163	0xbd6299b4	-0.055322364
164	0x3f0303d6	0.5117773
165	0x3f47d026	0.78051984
166	0xbfb0de93	-1.3817924
167	0x3f2c94ec	0.67414737
168	0x3f3825a9	0.71932465
169	0x3f4853ab	0.7825267
170	0x3f5a36f3	0.85240096
171	0x3f4c4174	0.79787374
172	0x3f51913d	0.8186224
173	0xbcb5f0a7	-0.022209479
174	0x3f48f43a	0.7849766
175	0x3f336488	0.70075274
176	0x40189dcb	2.384631
177	0x3f4a132a	0.7893549
178	0x3f5c580b	0.8607184
179	0x3f493b49	0.78606087
180	0x3f6a7a6e	0.9159306
181	0x3f451a55	0.76993304
182	0x3f577cc0	0.8417473
183	0x3fc0c40c	1.5059829
184	0x3f562684	0.8365252
185	0x3d40c66f	0.04706424
186	0x402a7765	2.6635373
187	0xbd49934a	-0.04921273
188	0x3f58061c	0.8438432
189	0x3f50d5d4	0.81576276
190	0x3f3c11f1	0.73464876
191	0x3fcc18b9	1.5945045
192	0x3f577ccf	0.8417482
193	0x3f4da684	0.8033221
194	0x3f5e4fdb	0.868406
195	0xbd48b410	-0.048999846
196	0x3f58eb5d	0.84734136
197	0x3f536072	0.8256904
198	0x40230a47	2.5475023
199	0x3f626b24	0.88444734
200	0x3f3f9bbf	0.74847025
201	0x3f5f74bc	0.872875
202	0x3f59b521	0.85042006
203	0x3f4c8050	0.7988329
204	0xc0e0ba0e	-7.0227118
205	0x3f5fa70c	0.8736427
206	0x3fe3f846	1.7810142
207	0x3f5349a2	0.8253423
208	0x4059f7b9	3.4057448
209	0x3f546149	0.82960945
210	0xbd43f01e	-0.047836415
211	0x3f4fd5c7	0.81185573
212	0x3f51a293	0.81888694
213	0x405a6878	3.4126263
214	0xbc94b093	-0.018150603
215	0x3f2e32c3	0.68046206
216	0x3f692139	0.9106632
217	0x3f447ada	0.76749957
218	0x3f514a05	0.8175357
219	0x3d2210ff	0.03956699
220	0x3f570c34	0.84002995
221	0x3f46c155	0.7763875
222	0xbc922260	-0.017838657
223	0x3f4e31f4	0.8054497
224	0xbc803200	-0.015648842
225	0x3f5fcd4e	0.87422645
226	0x3f54bb73	0.83098525
227	0x3f60f00d	0.8786629
228	0x3f3b966f	0.7327642
229	0x3f5c8846	0.86145437
230	0x3ff0d212	1.8814108
231	0x3f4c601a	0.7983414
232	0x3f7caea7	0.98704
233	0x3f53770c	0.82603526
234	0x40257f85	2.5859082
235	0x3f515b16	0.8177961
236	0x3f2e6b33	0.68132323
237	0x3f5701f5	0.8398736
238	0x3f44ff32	0.769519
239	0x3f18f1bf	0.59743875
240	0x3f491487	0.7854695
241	0x3f545e20	0.82956123
242	0x3f415fe2	0.7553693
243	0x3f4e0cb9	0.80488163
244	0x3f52f656	0.8240713
245	0x3f6aa9ba	0.9166523
246	0x3f48c15c	0.78420043
247	0x3f55d3a5	0.8352607
248	0x3f565e7a	0.8373791
249	0x3f48e766	0.78478086
250	0x3f2c457a	0.6729351
251	0x3f58d2ee	0.84696853
252	0x3f4be2c2	0.7964288
253	0x3f136d7d	0.5758894
254	0x3f4a9e28	0.7914758
255	0x3f4e7a84	0.80655694

linear2.bias f4 [4]
0	0x3f4ee1f5	0.80813533
1	0x3f5ad966	0.85487974
2	0x3f81b2d3	1.0132698
3	0x3f8028b3	1.001242
