model/model.pth (torch, 19264 bytes, 4 tensors)

linear1.weight f4 [256, 12]
00000000: d930 1b3e 50dc 1ac0 c12a a840 2485 10c0
00000010: 5c0e a83d effd b33e 70e9 013f 6b44 143f
00000020: 8092 ddbd 2ef3 203f 424e 1342 9322 4fc0
00000030: d708 c6be 530f 03c0 f1c4 a940 ef7b d9bf
00000040: 8745 9d3e 7fab a43e af53 2fbf aed2 523f
00000050: 1447 863e a75f 6dbe 3ebf 1942 a7e3 31c0
00000060: 09e4 da3f e85d 9ac0 76a6 e5c0 1b61 98c0
00000070: 5f86 8d3e 296f 92bf f757 1e3f 64b0 55bf
00000080: 5f3c 5abe 3c15 00c1 65cc 1f41 a784 03c1
00000090: cc13 c13e f7fc 09c0 1793 b140 d7b7 13c0
000000a0: 8fe6 0dbc 0088 883e ea21 f7bc 1c2e 303f
000000b0: 64e0 3f3e c790 bc3e bad6 1842 329d 1fc0
000000c0: 9bac 0fbf 060f 95bf 0345 d740 57ee b8bf
000000d0: 8ffe 123e 04c9 643e 5890 97bd 7319 233f
000000e0: 4c0a 35be af8e bc3f ead7 3542 17b2 87bf
000000f0: c230 14be 8c53 92bd 92be 1e3e 8e00 f6bd
00000100: 1c83 40be 7a61 083e 23af 58be 9000 50be
00000110: 9e72 813e 23e4 debd c490 d4bc 2ffd 83be
00000120: e590 94be 49c6 0fbe 3382 333e 27f5 8c3d
00000130: 6941 1d3e 6548 be3d b514 0c3e 9784 0b3d
00000140: b6e7 353e e301 bf3d c00e 8dbe e794 f03c
00000150: 4966 0fbf 8dbc ddbf 857f b540 bbc2 e6bf
00000160: 402e 883d b297 9f3e 59d3 253e 279e 083f
00000170: 70f6 f43c f761 a0be 2591 1d42 9d22 1bc0
00000180: 830f 64be 8f62 e3bc 4405 04be 9535 fc3d
00000190: 0036 213d 6426 1ebd 560f 7c3e aa5a 51be
000001a0: 5cd8 493e aeb1 083e e537 17be a89b 103d
000001b0: e5c5 22bf 9256 ffbf 3a35 b840 b53c febf
000001c0: 56c4 a53e 38e9 f8bb 0d07 58be 8a43 6f3f
000001d0: 2074 f5bc 1cf1 9d3e c5cd 2342 98d3 2cc0
000001e0: 7860 6fbf 1ddf fcbf 4f3c 9a40 4cd0 f3bf
000001f0: ecfe cb3d c7ce b23c 147d e13d 3704 dd3e
00000200: 9e94 203e d7ee 39bd c690 1742 120f 3cc0
00000210: 05ed 7abf e136 54c0 c809 6240 bd4a 24c0
00000220: c56e 1bbf 2c14 ca3e 4fca 463f 77b3 723f
00000230: 106a af3d 3c1a b0bf 6f9b f741 61e1 9fc0
00000240: 948a 15c1 f46f 5640 a6d9 1ac1 04aa 203f
00000250: 15e4 b7be 4440 4fc0 a498 3bbf b0d5 d1bf
00000260: 32ec 493e be11 c4c0 211d c840 1ec5 05c1
00000270: 1882 0fbf fb14 9abf 22ec d140 4209 a3bf
00000280: e012 ebbd dbca cb3d 86f3 bfbe 8a22 d43e
00000290: b8dd c63d b4e8 973f 5478 3142 2d1e a7bf
000002a0: 590f 77bf 20e2 03c0 1598 9040 96f2 01c0
000002b0: 98f4 b7bd cfb9 423d d3c6 f6bd 44c3 453f
000002c0: dcef 0a3e a8b9 66bf c922 0e42 42a7 56c0
000002d0: 75f4 4cbf 0548 22c0 b873 9d40 c895 0ec0
000002e0: 7398 48be ee0a 193f aeed 613e 8477 a53e
000002f0: 30cc e4bd ac4a 5a3e c754 1742 6ef2 70c0
00000300: d3b7 4dbe 48fa 473c ea94 27be 11d0 0b3d
00000310: bb9d bf3d b914 17be 107b fd3d 0a0f 30be
00000320: 2ced 57be 7623 24be 6a22 bbbd 505a b03c
00000330: d3e4 afbd 8ac5 54c0 a5e4 4140 8571 20c0
00000340: 2820 2ebe dd56 9dbe 441d 2bbe 87ec 183e
00000350: c8a3 dd3d 6d3c c1bf 8942 f241 2a8a 9dc0
00000360: ab31 7cbe f443 13be 39dc 83be d02a 1f3e
00000370: 404e d1bd f4f0 84be ceca 453c b60e b7bd
00000380: 60d8 a23c 3f75 623e 43db 9fbe b0f6 413d
00000390: d11c b1bf e915 99c0 88b1 83bf 424c 95c0
000003a0: 64d7 07bf e706 113e 7849 073f bdcd 45be
000003b0: 48de 8fbe 73e7 c2c0 2c35 8e41 8d9e fdc0
000003c0: 6f49 fd3d 3308 183e 0a50 cabd 4b26 8c3d
000003d0: 138e aabc c61b 1abe aef4 44be 418f be3c
000003e0: bc3b fcbd 12a5 0b3d 8779 5fbe fa72 703b
000003f0: 093f 80bf 8366 22c0 1b10 4b40 a4e3 24c0
0.15155353 -2.4196968 5.255219 -2.2581263 0.08205864 0.35154673 0.5074682 0.579169
-0.10818958 0.6287106 36.826424 -3.2364852 -0.3867862 -2.0478103 5.3052907 -1.6990947
0.30717108 0.3216209 -0.68487066 0.8235272 0.26226103 -0.2318102 38.43676 -2.7795198
1.7100841 -4.823963 -7.17657 -4.7618537 0.2764158 -1.1440173 0.61852974 -0.83472276
-0.21312092 -8.005184 9.987401 -8.219886 0.37710416 -2.1560647 5.5492053 -2.3080957
-0.0086609265 0.2666626 -0.030167539 0.6882036 0.18737942 0.36829206 38.209694 -2.4939694
-0.5612275 -1.164521 6.7271743 -1.4447736 0.14354919 0.22342306 -0.07400578 0.6371071
-0.17679709 1.4731044 45.460854 -1.0601224 -0.14471725 -0.071448416 0.15502384 -0.120118245
-0.18800014 0.13318434 -0.2116056 -0.20312715 0.25282758 -0.108833574 -0.025947936 -0.257791
-0.29016796 -0.14040484 0.17530136 0.068826966 0.15356983 0.09291152 0.13679774 0.034061994
0.17764172 0.09326532 -0.27550316 0.029367877 -0.5601545 -1.7323166 5.6718163 -1.8028177
0.066494465 0.31170422 0.16193904 0.5336632 0.029902667 -0.3132474 39.391743 -2.4239876
-0.22271542 -0.027756957 -0.12892634 0.123149075 0.03935814 -0.03861083 0.24615225 -0.20444742
0.19711441 0.1334903 -0.14767416 0.035304695 -0.63583213 -1.9948294 5.7564974 -1.9862276
0.32376355 -0.007596161 -0.2109644 0.9346243 -0.0299626 0.30848014 40.950947 -2.7004147
-0.93506575 -1.9755589 4.819862 -1.9047942 0.09960732 0.021827115 0.11010185 0.43167278
0.15681693 -0.04539379 37.89138 -2.9384198 -0.98017913 -3.3158495 3.531847 -2.5670617
-0.60715896 0.39468515 0.7765245 0.9480509 0.08565152 -1.3758006 30.950895 -4.996262
-9.346333 3.350583 -9.678137 0.62759423 -0.359162 -3.2382975 -0.73279786 -1.6393337
0.19719008 -6.127166 6.253556 -8.360624 -0.5605788 -1.2037653 6.560075 -1.27372
-0.114782095 0.09950801 -0.3749048 0.414326 0.09710258 1.186789 44.367508 -1.3056084
-0.96507794 -2.0606766 4.5185647 -2.0304313 -0.089821994 0.047540482 -0.120496415 0.77251077
0.13568062 -0.9012704 35.53397 -3.3539586 -0.8006051 -2.5356457 4.920376 -2.227892
-0.19589405 0.597823 0.22063324 0.32317746 -0.11171758 0.21317548 37.83279 -3.7647967
-0.20089655 0.012205668 -0.163654 0.034133974 0.093562566 -0.14753999 0.12376988 -0.17193237
-0.21086568 -0.16029152 -0.09137423 0.02152744 -0.08588567 -3.3245568 3.0295804 -2.5069287
-0.17004454 -0.30730334 -0.16710383 0.14933978 0.108222544 -1.5096565 30.282488 -4.9231157
-0.24628322 -0.14381391 -0.25753954 0.15543675 -0.10220003 -0.25965083 0.012072278 -0.08938353
0.019878566 0.22115038 -0.3122197 0.0473544 -1.3836919 -4.7839246 -1.0288553 -4.665559
-0.53063035 0.1416279 0.5284648 -0.19316764 -0.28099275 -6.090753 17.775963 -7.9256043
0.12367522 0.14846878 -0.098785475 0.06843241 -0.0208197 -0.15049657 -0.19233963 0.023261668
-0.12316081 0.03409297 -0.21823703 0.0036689625 -1.0019237 -2.5375068 3.172858 -2.576394

linear1.bias f4 [256]
00000000: 7998 1442 c5e7 1a42 6662 2541 4ebd 1942
00000010: 5649 3642 abc7 96be 6ee6 afbe e2e2 1f42
00000020: 3ed2 68be 0582 2542 e5b2 1842 aa97 f741
00000030: b5aa c140 0243 3242 8b88 0e42 f29b 1942
00000040: 99a8 7ebe 1115 f541 cb22 803d 7677 8d41
00000050: 3980 e7bd bcea fb41 b15d 3bbe 6f2e 3242
00000060: 1a70 c541 76e9 85be 87ee 93be c808 2341
00000070: 339b 8abe ed5f 8441 8543 3041 a7b9 2b41
00000080: 66d9 8f40 5a04 2642 04b2 9a41 3a5f 2141
00000090: ecc1 2741 f430 8d41 ea86 83be 33d5 a141
000000a0: 27ea 8140 ae00 263d 7d7c ea41 0074 0e42
000000b0: 4754 dc41 8a2c 1b42 2316 42be 4574 79be
000000c0: 51de 0bbe ee6e 2441 475d d840 a9d3 42be
000000d0: 99d9 de41 9592 3941 c4f1 2a42 983d f640
000000e0: a43d 6c40 6bb0 82be 5492 2542 cc5c cf40
000000f0: be02 47be 3050 3342 6108 8dbe 8bb3 f541
00000100: c9c8 3942 439c 3b42 f742 cc41 3d8a 9b41
00000110: b4cb 0b42 e095 1142 fd7c 2042 f233 0142
00000120: 275c a041 9702 3140 786f e241 4dcb 0942
00000130: 8f8f 2840 dc34 45be 5dfa 3b42 af8e 3542
00000140: 5a78 8fbe 979f 9041 cb86 8b40 fbee bd41
00000150: d6fa 3042 7750 1fbe 2c72 26bc f552 7abe
00000160: b727 80be 1b3c 4241 83ee 2841 8763 6241
00000170: 7e3f c240 de59 f0bc 5aa1 0442 8254 2842
00000180: 514f 8c40 af23 0c42 9c75 2942 3b39 c641
00000190: d25a 3d42 97e9 f941 aac7 90be 1bbf 6d41
000001a0: 560a 3742 dbe9 0e42 1fe2 1f42 c3fb 4542
000001b0: 9259 9141 4bf9 2342 1eb8 e4bd b8ee 8941
000001c0: 325e 1341 43e7 0242 2012 70be 46e6 3c42
000001d0: 8703 b341 3596 3a42 62f5 2441 7877 0d42
000001e0: 7840 2442 2af3 2f42 b41c e540 1f9f c441
000001f0: 3e67 7641 f1cc d141 cb40 d741 7e58 3842
00000200: 6a15 a741 df48 ee41 6395 df40 2eab 5241
00000210: 35f9 9141 a6aa 2942 9994 f641 155d f241
00000220: 431a c441 ae2a 4442 8a9f 3c42 4423 68be
00000230: 963a 59be 7c06 1842 5186 0442 dfd5 4341
00000240: 4133 a341 610a d541 4cbb 9340 4c1d b241
00000250: e316 f441 6204 0041 21e9 1642 414c 9541
00000260: db48 3041 f516 5440 25be 3242 376f 9d41
00000270: 95e0 0942 ddbc 2241 fc4c 9e40 ef6e 0a42
00000280: 22b4 7e41 4867 9a41 a306 9341 dc31 dc40
00000290: f06c 5240 7f07 e840 cccc e741 9cdf e441
000002a0: 9ea7 1042 9a21 5b40 7694 1942 3e50 6240
000002b0: 979f 2a42 1982 2d41 85d0 3e42 6113 ac40
000002c0: ff82 1d42 23d0 3942 39f9 39be 819e d241
000002d0: 3921 e141 c163 3e42 79c7 65be c1f3 9dbe
000002e0: face be41 a5ad ca41 a999 2942 84dc 3542
000002f0: 1a08 d23c 21b8 2642 2461 ea41 900e 0742
00000300: 7d5b 0442 93e2 1742 2ffb ec41 a809 3c42
00000310: d1e9 3e42 3047 9341 ada5 4f40 ed12 1742
00000320: 6370 5dbe 4afc 7e41 1106 3241 0281 77be
00000330: 6743 c841 74c7 1942 eda9 a840 d5ce 2242
00000340: bed5 b23c 6b4b 1942 9375 c540 811c d741
00000350: 2ff9 0342 d5b5 1b42 648c 3dbe baee 1842
00000360: 6106 2b42 9f56 8641 f3b2 6740 87d0 e8bd
00000370: 7566 3b41 2a41 2341 33af b841 cb91 2840
00000380: 7a3e 4541 9f93 8840 4d4e 0142 c4de d140
00000390: d23b 83be caea 3a42 d03d df41 7bf0 82be
000003a0: faab 1542 de4f 3a42 9fa6 e540 4eb8 2542
000003b0: 641d 7d40 d44c fe41 9925 ac41 5839 8c40
000003c0: c189 2442 f855 c941 73b3 8241 0f09 2842
000003d0: 4f09 2942 709f 2940 0fac e940 d0f7 5ebe
000003e0: 502d f1bd fd2c 0642 0baf 8841 4d38 9d41
000003f0: 4ca2 98be 5803 c841 597b b541 aa58 f441
37.1489 38.726337 10.336523 38.434868 45.571617 -0.2944921 -0.3435549 39.971565
-0.22736451 41.376972 38.1747 30.949055 6.0520883 44.565437 35.633343 38.40229
-0.24869002 30.635286 0.06256636 17.68333 -0.113037534 31.489616 -0.18297459 44.545345
24.679737 -0.2615468 -0.2889292 10.189644 -0.27071533 16.546839 11.016484 10.732825
4.495288 41.50425 19.336922 10.085749 10.484844 17.648903 -0.2568887 20.229101
4.059833 0.040527992 29.310785 35.61328 27.541151 38.793495 -0.18953757 -0.2436076
-0.13659026 10.277082 6.7613864 -0.19026054 27.856249 11.598287 42.7361 7.695019
3.6912622 -0.2552522 41.3929 6.4800777 -0.1943464 44.82831 -0.27545455 30.712667
46.44608 46.9026 25.532698 19.4425 34.94893 36.396362 40.12206 32.300728
20.044996 2.765783 28.304428 34.448536 2.6337621 -0.19258446 46.994495 45.38934
-0.28021508 18.077925 4.360204 23.74169 44.244957 -0.15558039 -0.010159057 -0.24445708
-0.250303 12.139674 10.55823 14.149299 6.0702505 -0.029339727 33.15757 42.082527
4.384682 35.034847 42.364853 24.777945 47.33869 31.239058 -0.28277332 14.859157
45.760094 35.728374 39.97082 49.49586 18.168736 40.99345 -0.1116793 17.241562
9.210497 32.72584 -0.23444414 47.224876 22.376722 46.646687 10.309908 35.36667
41.062958 43.987465 7.159754 24.577696 15.400206 26.225069 26.906637 46.08642
20.885456 29.785582 6.9869857 13.166792 18.246683 42.41665 30.822557 30.29545
24.512823 49.04168 47.1558 -0.22669703 -0.21213755 38.006332 33.13117 12.239715
20.400026 26.630068 4.6166134 22.264305 30.511175 8.00107 37.727665 18.662233
11.017787 3.3139012 44.685688 19.679304 34.46932 10.171109 4.9468975 34.608334
15.918978 19.30043 18.37824 6.8810863 3.287899 7.250915 28.974998 28.609184
36.16369 3.4239259 38.39498 3.5361476 42.65585 10.844262 47.703632 5.3773656
39.377926 46.45326 -0.18161477 26.327394 28.141222 47.597416 -0.22439374 -0.30850032
23.851063 25.334787 42.40006 45.465347 0.025638629 41.679813 29.297432 33.76422
33.089344 37.971264 29.622648 47.00943 47.728336 18.40976 3.244487 37.768482
-0.21624903 15.936594 11.126481 -0.24170306 25.032911 38.44478 5.270743 40.701984
0.021830436 38.32365 6.1706023 26.888918 32.993343 38.92757 -0.18510586 38.23313
42.75623 16.792295 3.6202972 -0.113678984 11.712514 10.203409 23.085546 2.6338985
12.327753 4.26802 32.326466 6.558443 -0.25631577 46.729286 27.905182 -0.25574097
37.417946 46.577995 7.1765895 41.429985 3.9549189 31.787514 21.518358 4.382
41.134525 25.166977 16.337622 42.008846 42.25909 2.6503563 7.3022532 -0.2177422
-0.11776221 33.543934 17.08547 19.65249 -0.29811323 25.001633 22.685228 30.543293

linear2.weight f4 [4, 256]
00000000: 08eb 183f 9891 093f 3247 c13e 8719 133f
00000010: bc6a 0f3f 74e4 39bc 35af 203d 7984 123f
00000020: 05d6 413d 7f95 193f e872 183f 040d 2c3f
00000030: 46dc 283f 6670 0d3f 78a7 173f 7dab 273f
00000040: f09d 8cbc 1727 173f 003e 76bd 9b40 483f
00000050: 5f97 41bc 8389 193f e640 71bd 594f 153f
00000060: 0d79 263f 8b73 2e3b 76f9 193d 4c59 3f3f
00000070: 06e5 313c 8f67 293f 6735 333f 62c9 743f
00000080: 611c 0340 fdd7 143f ec0b 1e3f cb58 c83e
00000090: 6b7d 3f3f 27c9 453f 94b4 c7bc 1690 2f3f
000000a0: 7685 1140 229e 8fbd ec48 123f 74ce 1b3f
000000b0: e573 353f a087 1d3f 1e15 533d 3633 63bd
000000c0: 0440 f23c 9720 1d3f e590 cc3f a482 61bc
000000d0: f0ac 1b3f 9817 763e a43c 1c3f 0b62 a13f
000000e0: 96a2 1640 9818 483d a085 183f 993b 073f
000000f0: 48f2 343c e2ac 183f 28c5 493c 3052 1c3f
00000100: fd08 0b3f f5ae 103f f0a5 263f 1000 133f
00000110: 7953 183f a519 1f3f e2fb 123f 7b20 073f
00000120: ef90 2d3f dc70 6c40 2790 093f 1f2b 233f
00000130: 4a42 7a40 5407 6c3c 7719 0b3f d996 163f
00000140: 4c73 2f3d 04a5 2d3f b0a0 b93f afb9 393f
00000150: 9cc5 1e3f 6838 2ebd cc8f 5abc eac2 c53d
00000160: 0f84 a7bc 783e 293f 13a3 073f e842 303f
00000170: 2770 bf3f 32f2 54bd 12a5 123f 80b9 243f
00000180: 260a 0e40 6765 1f3f d2fe 163f 64ff 173f
00000190: 722a 173f 5107 2d3f a5d9 57bc 10dd 2d3f
000001a0: fad8 0a3f 3659 233f 2a13 1e3f a8c4 0d3f
000001b0: 3b6a 303f 4bb3 163f 0c63 86bc 1f7e 163f
000001c0: 4a36 0c3f 4e66 213f 1086 323c 06fa 173f
000001d0: 1972 2a3f b293 0d3f d662 683f c384 243f
000001e0: c838 063f 960f 0e3f 4498 47bd 5fb4 123f
000001f0: 07fb 563f 452e 333f 3402 163f 1528 143f
00000200: 1b29 1a3f a163 2b3f 3036 593e 6572 393f
00000210: 4bfd 303f ec2d 203f 43a6 1c3f 5131 2e3f
00000220: 84de 1c3f 298f 083f dc83 123f 0244 363d
00000230: 3419 46bd 1e28 103f 3bc7 233f 4e05 4b3f
00000240: 3d1a 293f 8fc8 123f 56a2 313f e4de ef3e
00000250: a858 043f c6a0 4e3e 97b1 133f 2720 3c3f
00000260: bac7 0e3f 0c66 a040 d7b6 1a3f 31c9 163f
00000270: c7f0 243f daac 033f ae42 b53f 7069 103f
00000280: f716 503f a39b 1c3f 2b5e 443f edb8 1a3e
00000290: 8a33 2340 36c2 773f 660f 283f fe3c 093f
000002a0: ae65 1a3f caac 1340 7500 253f 1e88 3540
000002b0: ebc9 1f3f 6162 203f d48e 103f 0d60 723f
000002c0: 279a 053f d0ed 143f 50eb a0bc da33 103f
000002d0: 0a83 1d3f 204a 143f f173 ddbb 8e64 353b
000002e0: 22e3 2a3f 2ad0 1c3f d326 183f 8cb8 0f3f
000002f0: 3795 04bd 5d03 133f bdcc 243f c345 123f
00000300: 9604 2f3f dfdc 133f a2ec 1e3f f15f 0a3f
00000310: a773 143f 60e2 443f c37e 1540 537d 143f
00000320: 8b3e af3d 80cc 153f ccc8 023f b06f 963c
00000330: cba7 2c3f 1450 213f 8ffd 443f c672 183f
00000340: 5e82 a6bc 6409 0f3f 4ef8 f53f 478f 263f
00000350: d384 0d3f 87a2 0c3f bde2 33bc 1f23 0d3f
00000360: 5125 0e3f 0f1e 163f 1214 0b40 a141 01bd
00000370: 7989 3b3f c228 ed3e f2af 2b3f 9796 3640
00000380: 730f 3d3f 2125 2440 4af1 0f3f 096f 833f
00000390: b0c3 b13c a7d5 143f 5fa4 123f 41c0 c33c
000003a0: 7c2e 203f 5880 153f 0da4 e13e 74a4 0e3f
000003b0: cb67 c93f bd46 263f c4d2 223f 7a17 1940
000003c0: 1a3e 143f 4c04 113f 34cd 253f 1990 193f
000003d0: c786 1d3f 6d5e 4640 b3a4 cb3e 60f8 e63b
000003e0: 66e7 53bd 105b 283f 95d8 4a3f f6ab 373f
000003f0: 815e ae3c 16c5 2e3f b5f5 0c3f f802 343f
0.5973363 0.53737783 0.3774963 0.57460827 0.5602224 -0.011345971 0.03922959 0.5723339
0.047323246 0.5999374 0.59550333 0.6720736 0.6596111 0.5524963 0.5923991 0.65496045
-0.017165154 0.5904402 -0.06011772 0.7822358 -0.011815875 0.5997545 -0.058899783 0.583242
0.6502846 0.0026619162 0.03759142 0.7474563 0.010857826 0.6617364 0.7000336 0.95619786
2.048607 0.5814207 0.6173694 0.39130244 0.7480075 0.7726006 -0.024378099 0.6857923
2.2737708 -0.07012583 0.5714252 0.608619 0.70879966 0.6153507 0.05153381 -0.05546876
0.02957154 0.61377853 1.5981718 -0.013764057 0.60810757 0.24032438 0.6103003 1.2608045
2.3536735 0.04885158 0.59578896 0.52825314 0.0110440925 0.596388 0.012315072 0.6106291
0.5431059 0.56516963 0.6509695 0.5742197 0.5950237 0.62148505 0.5741559 0.52783936
0.67799276 3.6943884 0.53735584 0.6373767 3.910296 0.014406044 0.5433573 0.58823925
0.042834565 0.6782992 1.4502163 0.72548956 0.6202028 -0.042534262 -0.013339948 0.096563175
-0.020448713 0.66110945 0.52983207 0.6885209 1.4956101 -0.051988788 0.5728313 0.6434555
2.2193694 0.622641 0.58982575 0.5937407 0.5904914 0.6758929 -0.013174449 0.6791544
0.5423733 0.63808 0.6174799 0.553782 0.68912095 0.5886733 -0.016404651 0.58786196
0.5477034 0.6304673 0.010896221 0.5936588 0.6658035 0.5530349 0.9077581 0.6426508
0.5243039 0.5549253 -0.048729196 0.57306474 0.8397679 0.69992477 0.5859711 0.5787366
0.6021897 0.66948897 0.21212077 0.7244018 0.69136494 0.6257007 0.61191195 0.68044
0.6127703 0.53343445 0.5723245 0.04449845 -0.04836388 0.56311214 0.63975877 0.7930497
0.6605566 0.5733728 0.6938833 0.4684974 0.5169778 0.20178518 0.57692856 0.7348656
0.5577351 5.012457 0.6043524 0.58900744 0.644299 0.51435626 1.4160974 0.56410885
0.8128504 0.6117498 0.7670619 0.15109606 2.5500207 0.9678072 0.65648496 0.5360869
0.603114 2.3074212 0.6445382 2.836433 0.6241748 0.62650114 0.5646794 0.9467781
0.5218834 0.58175373 -0.019643456 0.5632912 0.61528075 0.57925606 -0.006758206 0.0027678343
0.6675283 0.61255133 0.5943424 0.5614097 -0.032368865 0.57427007 0.64374906 0.571377
0.6836637 0.577589 0.62079823 0.54052645 0.5798897 0.7690792 2.335862 0.5800373
0.08556851 0.5851517 0.5108764 0.018363804 0.6744353 0.63012815 0.769494 0.5955013
-0.020325836 0.55873704 1.9216402 0.65062374 0.552808 0.549355 -0.010979352 0.55131716
0.5552569 0.58639616 2.1731 -0.03155673 0.7325664 0.46320158 0.67065346 2.8529413
0.738517 2.5647662 0.5622755 1.026826 0.021699756 0.5813851 0.5728206 0.023895385
0.6257093 0.5839896 0.44070473 0.55719686 1.57348 0.6495169 0.6360285 2.392058
0.5790726 0.5664718 0.6476624 0.599855 0.6153378 3.0995133 0.39774093 0.0070486516
-0.05173435 0.6576395 0.7923673 0.71746767 0.021285297 0.6826948 0.5506242 0.7031703

linear2.bias f4 [4]
00000000: 9a83 b93e dd83 163f d010 5a3f 47d9 3a3f
0.36233217 0.5879496 0.85181904 0.7298779
