model/model_trained_center.pth (torch, 19264 bytes, 4 tensors)

linear1.weight f4 [256, 12]
000000 a2 4a 38 3f 2f a8 45 c0 f1 c4 b7 be 0f 66 a8 bf
       0.7198888 -3.08839 -0.35892442 -1.3156146
000010 9c d9 61 3e a3 c0 c6 bc 48 e7 0a be c5 d6 11 bd
       0.22055668 -0.024261778 -0.1356479 -0.03560521
000020 80 db 42 3b 30 bb 27 c0 11 8f 94 41 82 58 80 c0
       0.0029732883 -2.6208 18.569857 -4.010804
000030 37 59 26 be 1e 66 fd bf 28 31 68 40 b6 e6 81 bf
       -0.1624497 -1.9796789 3.6280003 -1.0148532
000040 46 1f af be ad 0b 37 3e 3d 6e c2 3e cc 98 82 3e
       -0.34203547 0.17875548 0.3797473 0.255072
000050 d2 b5 30 3e 0d 4d 77 3e e2 04 f4 41 21 72 26 c0
       0.17256859 0.24150486 30.502384 -2.6007159
000060 b5 de 16 be 2e 80 19 c0 e1 c8 8f 3f ac 06 c6 bf
       -0.14733393 -2.3984485 1.1233178 -1.5470786
000070 ce 83 f4 3d 60 24 d1 3c f0 55 73 be e6 a5 5e 3e
       0.11939202 0.02553004 -0.23763251 0.21742973
000080 c4 e9 73 be bb e5 59 bf 56 39 c3 41 2d 6c 84 c0
       -0.23819643 -0.85116166 24.402996 -4.138205
000090 6e 82 9e c0 72 91 62 c0 fb 24 94 c0 50 67 fb bf
       -4.9534216 -3.5401273 -4.629514 -1.9640903
0000a0 2c e7 a2 be 0d 55 21 bf a2 10 be bf 9e a2 5b bf
       -0.31816995 -0.630204 -1.4848826 -0.8579501
0000b0 08 59 2b be 86 4d a5 c0 b8 ad 03 41 a3 c9 ec c0
       -0.16733181 -5.1657133 8.229912 -7.399614
0000c0 c8 33 8f bf b0 55 14 c0 9f 62 61 3f f1 46 77 bf
       -1.1187677 -2.31773 0.8804111 -0.96592623
0000d0 fb 7a 98 bd ba 9c 82 be 72 b8 30 be f6 74 0d be
       -0.07445332 -0.25510198 -0.1725786 -0.13814148
0000e0 b0 cd a0 3d 48 18 64 c0 33 5e 91 41 2d 63 77 c0
       0.07851732 -3.563982 18.170996 -3.8654282
0000f0 49 3b 2e c1 38 3d 07 41 4d db 36 c1 89 e4 07 41
       -10.889474 8.452446 -11.42854 8.493295
000100 0e ae 07 c0 94 81 22 c0 69 69 28 bf d3 eb d9 bf
       -2.1199985 -2.5391588 -0.65785843 -1.7025093
000110 00 b2 c8 bb 3e 57 f3 c0 de 7a a0 40 e9 12 f2 c0
       -0.006124735 -7.6043997 5.0149984 -7.5648084
000120 76 9c 29 3e ec 02 f9 bd a2 f9 f8 3d 8f c1 49 bd
       0.16563591 -0.121587604 0.12156989 -0.049256857
000130 4e e2 be bc fb 41 57 be d4 2b d2 bd ee 76 b6 bd
       -0.02330127 -0.21021263 -0.10262266 -0.08909403
000140 74 cc 7b 3e 69 e5 70 3e 73 09 88 be c1 47 e8 3d
       0.24589711 0.23525013 -0.2656971 0.11341811
000150 57 ed 2e be ac 85 7f bf ac 46 58 40 31 85 02 bf
       -0.17082725 -0.9981334 3.3793135 -0.50984484
000160 4f 97 60 bd 6a 7b fb bd 05 81 ae bd c2 9b 18 3f
       -0.0548318 -0.12279399 -0.08520702 0.5961267
000170 2e 04 06 3e 5f e5 6e 3e 01 d1 f6 41 58 a6 ce bf
       0.13087532 0.23329686 30.852053 -1.6144514
000180 aa 0c bb be 60 3f e9 bb 56 ed 8f 3c 33 7e 07 be
       -0.365331 -0.0071181506 0.017569225 -0.13231735
000190 1c 54 df 3c 21 88 ab 3d 0e f2 e9 3d 6f f3 13 be
       0.027261786 0.08375574 0.114231214 -0.14448331
0001a0 08 e2 51 3d f7 cc 5a 3b 48 03 1a be 96 8a ca bd
       0.05124095 0.0033386329 -0.15040314 -0.098897144
0001b0 4e 4f 2c be 44 e6 bf bd 32 ec 0a be 07 23 8d bd
       -0.16827127 -0.093700916 -0.13566664 -0.068914466
0001c0 d9 07 fe 3b e1 6c e3 3d a6 45 9c 3c 01 9f 90 bd
       0.0077524004 0.111047514 0.01907618 -0.070615776
0001d0 80 15 da 3b 5f 86 ba 3d b4 10 94 bd 88 7f 82 3d
       0.006655395 0.091076605 -0.07229748 0.06371981
0001e0 80 82 af bd 4f aa 9b bf bb 89 89 40 55 5a 1c bf
       -0.08569813 -1.2161349 4.298063 -0.61075336
0001f0 bd 0a e4 bd b0 0d 0c 3f 1b 67 9c 3e cc 6f ad bc
       -0.11134861 0.54708385 0.30547413 -0.021171473
000200 b8 e5 48 3d 83 03 d2 3d 1a 3a 05 42 55 b1 a6 bf
       0.049047202 0.10254576 33.30674 -1.3022867
000210 4d a2 3b 3f 29 ec 9a c0 b3 04 8c c0 94 06 22 c0
       0.73294526 -4.841328 -4.3755736 -2.5316515
000220 ca 4d 0c be ac 38 cd 3c 28 fa 79 be 1a cb 63 bf
       -0.13701549 0.025051437 -0.24411833 -0.88981783
000230 9a 95 12 3e a5 03 d0 c0 37 8d 25 41 1d 63 c7 c0
       0.14314881 -6.500445 10.346976 -6.230849
000240 49 62 fc c0 d2 98 0c 41 53 96 0a c1 f3 cd 0f 41
       -7.8869977 8.78731 -8.6617 8.987781
000250 47 24 c6 be 33 fa 89 bf 88 3d 35 bf be 4a a4 bf
       -0.38699552 -1.077948 -0.70797014 -1.283531
000260 cc a0 96 3d 54 db cb c0 06 16 2a 40 b1 bb db c0
       0.07354888 -6.3705235 2.6575942 -6.8666615
000270 00 7a a3 3e c6 eb e8 bf eb d1 32 40 26 2e 91 bf
       0.31929016 -1.8196952 2.7940624 -1.1342208
000280 10 c8 0e 3d bd 0c 56 3e df 4f 05 3e 04 90 86 3d
       0.034858763 0.20903297 0.1301875 0.065704376
000290 e3 0d 1c be d8 62 a1 be 74 7c df 41 a5 d3 0b c0
       -0.15239672 -0.31520724 27.935768 -2.1847928
0002a0 64 66 f0 3e 7b c1 5b c0 a2 24 33 bf f4 09 ca bf
       0.46953118 -3.433684 -0.6997777 -1.5784287
0002b0 de af 45 3e 00 e3 7c 3e be 4a 9f be 75 da 0e bc
       0.1930537 0.24695969 -0.3111171 -0.008719076
0002c0 40 cd 6f 3e 84 03 13 c0 bb e0 88 41 3a e4 93 c0
       0.2341814 -2.2970896 17.109732 -4.6216097
0002d0 1e e3 02 be cd 6a f5 3c d0 97 b1 3d d9 c6 71 bd
       -0.12781951 0.029958153 0.08671534 -0.059027527
0002e0 b2 68 5e be ee 49 12 3c 48 8a 9d bd 00 0c 60 ba
       -0.21719626 0.008928759 -0.07692391 -0.000854671
0002f0 be 77 ab bd 55 3b 8a be 6b 9e d2 bd d0 25 d9 bc
       -0.083724484 -0.26998392 -0.10284122 -0.026507288
000300 b6 ed 03 c1 aa df 08 41 20 d1 0e c1 f9 e9 15 41
       -8.245535 8.5546055 -8.926056 9.369622
000310 8c 58 6f bf c1 6c ac bf 53 6b fd bd 28 d2 ac bf
       -0.93494487 -1.3470689 -0.12373986 -1.3501635
000320 90 33 bb 3c 85 9a e8 c0 a0 3d 46 40 8f 02 dd c0
       0.022851735 -7.2688622 3.0975113 -6.9065623
000330 71 82 49 3e 0f a6 97 bf 69 02 80 40 92 91 52 be
       0.19678666 -1.1847552 4.000294 -0.20563343
000340 8c ce 98 bd 88 76 0f 3f 7b a5 db bd 60 ec 3a 3e
       -0.07461271 0.5604024 -0.10724922 0.18254232
000350 54 58 3d 3e 61 a9 95 3e 38 a1 fe 41 0f 91 d9 bf
       0.18490726 0.29230788 31.82872 -1.6997393
000360 02 f5 11 c1 16 f7 18 41 d1 6a 20 c1 c4 74 25 41
       -9.122316 9.560324 -10.026078 10.341007
000370 75 38 c9 be d5 ba ce bf 33 f8 87 bf 35 41 93 bf
       -0.39300886 -1.6150767 -1.0622619 -1.1504275
000380 68 80 3c 3d 32 7a ff c0 52 93 57 40 21 c4 f8 c0
       0.046020895 -7.9836664 3.3683667 -7.7739415
000390 d2 84 1b 40 3e cf 64 c0 fc 0a ab c0 41 27 0c c0
       2.4299817 -3.575149 -5.345091 -2.1898959
0003a0 7a 50 40 be c6 b3 88 bd 9f 01 a2 3d bb 92 81 bf
       -0.187807 -0.06674914 0.079104654 -1.0122904
0003b0 10 fb d4 3c 8b e2 85 c0 57 ec 03 41 87 8f d7 c0
       0.025998622 -4.183904 8.2452 -6.7362704
0003c0 e2 73 82 bf 19 eb 1d c0 14 3b d6 bf 98 78 d5 bf
       -1.0191615 -2.4674742 -1.6736779 -1.6677427
0003d0 ea 24 33 bf 39 31 1f bf 10 25 47 bf 4a ee 90 be
       -0.699782 -0.6218448 -0.7779093 -0.283068
0003e0 f4 1a 83 be b2 0e 1b c0 39 6f 8f 41 7e 27 d0 c0
       -0.256065 -2.422772 17.929308 -6.504821
0003f0 65 ee d1 bc 20 25 cb bf c0 c8 87 40 33 e7 5f bf
       -0.02562637 -1.5870705 4.2432556 -0.87462157

linear1.bias f4 [256]
000000 fd ce 96 41 34 cf f5 41 fe ae bf 41 72 60 00 41
       18.851068 30.726173 23.960445 8.023546
000010 0f f7 90 41 10 6d 97 40 23 d4 92 be 39 fc f6 41
       18.120634 4.7320633 -0.28677472 30.873156
000020 4d bb de bd a4 20 cf bd ec f3 05 42 f7 8a 21 41
       -0.108755685 -0.101136476 33.488205 10.096427
000030 04 39 2c 40 aa 0b e1 41 63 e1 87 41 41 40 fa bc
       2.69098 28.130695 16.985052 -0.030548217
000040 fc 0d 3e 40 91 93 fe 41 71 06 68 40 97 99 02 41
       2.9696035 31.822054 3.6253932 8.1624975
000050 ed 8a 8b 41 83 37 06 42 5d 5d 92 41 da 3d 34 41
       17.442835 33.55421 18.295588 11.2651005
000060 e2 e7 ea 41 4d 9d 78 41 92 c7 f6 41 6f ad be 41
       29.363224 15.5384035 30.847446 23.834684
000070 64 a5 be 41 29 02 f6 41 d0 2b fd 41 bf 82 f2 41
       23.830757 30.751055 31.646393 30.31384
000080 a7 b5 1d 41 49 9a ad 41 bc 57 02 42 c0 7f 3b 40
       9.856849 21.700335 32.58568 2.9296722
000090 f6 89 d5 41 c9 6a a5 41 09 a5 64 41 fc 04 d6 40
       26.692364 20.677141 14.290292 6.6881084
0000a0 99 d0 75 41 29 4f cc 3f 5a a7 cd 41 23 74 bc 41
       15.363427 1.5961658 25.706715 23.556707
0000b0 51 02 f2 41 2b e8 82 41 92 22 b6 41 89 01 8f be
       30.251131 16.363363 22.76688 -0.2793086
0000c0 bc 32 01 42 21 a8 c6 41 47 ba f6 41 4e a2 e4 bd
       32.299545 24.832094 30.840956 -0.1116377
0000d0 f9 88 db 41 7b 8b 1c 41 de cf f8 41 74 6e b6 41
       27.441881 9.784053 31.101498 22.803932
0000e0 59 2c fa 40 31 5d d4 41 48 39 c2 41 90 d0 41 3d
       7.8179135 26.545504 24.27797 0.04731804
0000f0 5d 89 c5 41 46 10 bf 41 f2 2e 9d 41 42 bb e4 41
       24.692072 23.882946 19.647923 28.591434
000100 52 5b 5b 40 6a ad bd 41 70 5e 3c 41 2e 33 f0 41
       3.4274487 23.709675 11.773056 30.02499
000110 aa 8c 50 40 ff 2c ba 40 9e 8f d3 41 9e a5 b5 41
       3.2585855 5.8179927 26.445126 22.705868
000120 65 4f ec 40 d5 af 1f 41 22 e0 65 be 7b 1d 99 40
       7.3846917 9.980428 -0.22448781 4.7848487
000130 b9 3d 70 41 b1 ba ee 41 14 ae d2 41 19 f1 d4 41
       15.015069 29.841158 26.335 26.617723
000140 ce 72 3b 41 69 96 b5 41 be d0 97 41 47 6a ed 41
       11.7155285 22.698442 18.976925 29.676893
000150 0f 24 d4 41 73 b8 a0 41 c7 c2 aa 40 14 b8 9f be
       26.517607 20.090063 5.3362765 -0.31195128
000160 b6 26 3d be 45 fc ef 40 27 78 01 42 26 44 b5 41
       -0.18471798 7.4995446 32.367336 22.658276
000170 f3 69 84 41 49 3f d8 41 01 29 06 42 03 52 96 be
       16.551733 27.030901 33.540043 -0.29359445
000180 a2 90 81 41 6b 96 bf 40 4c b7 24 be c9 55 dd 41
       16.195621 5.9871116 -0.16085547 27.666887
000190 66 f2 5d 40 f3 ea 00 42 7a 5f 43 be 54 03 15 41
       3.4679198 32.229443 -0.1907939 9.313313
0001a0 b0 f2 e6 41 78 d6 22 41 7d 10 05 42 75 07 a7 41
       28.8685 10.177361 33.2661 20.878641
0001b0 de 33 7e 41 26 54 cb 41 6c 57 59 41 f4 79 3c 40
       15.887663 25.416088 13.583843 2.9449434
0001c0 49 aa c9 41 34 46 01 42 66 ac d1 41 39 a2 b2 bb
       25.208147 32.318558 26.209179 -0.0054514674
0001d0 d6 0a 2a 41 47 2a d9 40 d4 9d db 41 ec 44 0a 41
       10.6276455 6.786411 27.452065 8.641827
0001e0 51 b7 a2 41 a4 38 99 41 5f 53 62 41 59 fe d2 41
       20.33951 19.152657 14.145354 26.374193
0001f0 9f 01 7b 41 81 aa c8 41 3f 72 d8 41 ab e9 df 41
       15.687896 25.083254 27.055784 27.989096
000200 1c 15 2a 41 06 3b 03 42 cb a2 07 42 73 00 ff 40
       10.630154 32.80764 33.908978 7.968805
000210 73 10 22 41 7b da 0a 41 f2 73 a1 41 13 62 b4 3c
       10.129016 8.67834 20.181614 0.022019422
000220 a4 cb ff 41 07 54 3a 41 3c 57 ee 40 6f 66 7d 41
       31.974434 11.6455145 7.4481487 15.837508
000230 08 db 05 41 1a fe af 41 f0 97 d7 41 3d 5c cf 41
       8.365974 21.999073 26.949188 25.920038
000240 f8 d2 ca 41 6b ae 8b be b7 cf 5c 41 1b 31 3a be
       25.353012 -0.27281508 13.800712 -0.18182795
000250 d2 33 02 41 2e 9e 04 42 c7 6f 91 40 2f a5 dd 41
       8.137651 33.154472 4.5448947 27.705656
000260 a8 46 e4 41 4b 93 1d 3e 4b c4 85 41 e5 e6 12 40
       28.5345 0.15388219 16.720846 2.2953427
000270 e6 70 4a 41 85 eb fd 41 61 41 00 42 30 cf ca 41
       12.652563 31.74 32.063847 25.351166
000280 fe 17 d4 41 a9 4a f9 40 b9 a2 91 41 c2 ba 3a 41
       26.511715 7.790364 18.204454 11.670595
000290 33 a8 54 be 99 e8 81 40 2c 5d a7 41 3e b5 c8 41
       -0.20767288 4.0596433 20.920494 25.088497
0002a0 df e8 79 41 ae 90 ff 41 08 9b cd 3b 87 7e 9f be
       15.619353 31.945644 0.0062745847 -0.3115122
0002b0 d2 aa c9 41 b0 1f 05 41 3d ff f9 41 23 e3 c6 41
       25.208408 8.320236 31.249628 24.860907
0002c0 e8 86 fe 41 91 a4 fb 41 cb 4b 01 42 06 c2 e1 41
       31.815872 31.455355 32.324017 28.219738
0002d0 9f 9f fe 41 76 c7 3a 3f 82 95 0c 41 ee 42 41 41
       31.82794 0.72960603 8.786501 12.07884
0002e0 0d 12 f1 41 b2 bb a6 bd 38 c7 df 41 99 32 ce bd
       30.133814 -0.08141269 27.972275 -0.100682445
0002f0 ad 1f 15 40 fd 18 ab be 6e d7 df 40 8e 29 cc 41
       2.3300583 -0.33417502 6.9950476 25.52029
000300 5e 91 dc 41 36 b7 e2 41 7a 72 ba c0 a0 b2 70 40
       27.57098 28.339458 -5.826474 3.7609024
000310 81 53 ec 40 f0 30 92 41 90 9f cd 41 a8 7a ad 41
       7.3851933 18.273895 25.702911 21.68489
000320 46 d7 da 40 8e 6b e7 41 59 2f ec 40 a3 0e 6b 41
       6.8387785 28.927517 7.3807797 14.691073
000330 82 ce f7 3d e5 19 92 be 3a 18 03 42 c6 87 6a 41
       0.12099935 -0.2853538 32.77366 14.658148
000340 34 a9 08 42 85 92 42 41 17 da 8c 41 71 34 88 41
       34.165237 12.160771 17.60649 17.025606
000350 ab ed 7e 40 7c b3 9a 41 47 c9 df 41 19 b5 bf 41
       3.983256 19.337639 27.97328 23.963427
000360 fd fb 43 bc 73 82 ce 40 8f b5 c3 41 f9 96 f1 41
       -0.011961934 6.453424 24.463652 30.198717
000370 4e ea 9d 41 88 6c ec 3f 24 19 ad 41 5c fb 07 40
       19.739407 1.8470621 21.637276 2.1247168
000380 9f ed d6 41 ad ca cd bd 3e bc f5 41 a7 7c b2 41
       26.866026 -0.10048423 30.716915 22.310865
000390 76 79 e4 41 04 14 72 40 99 0c 2e 41 40 9f ec 41
       28.559307 3.7824717 10.878076 29.577759
0003a0 b3 a8 f3 41 75 85 81 41 41 29 ec 41 ca 8a 38 41
       30.457373 16.190165 29.520144 11.533884
0003b0 2b 5b 79 41 f8 82 f2 41 9d 5d 6e 41 21 d0 76 be
       15.584758 30.31395 14.897855 -0.24102832
0003c0 5d 05 1f 40 de 42 00 42 94 42 bf 41 e7 4f 32 40
       2.4847023 32.0653 23.907509 2.7861269
0003d0 97 34 a1 41 74 10 a5 41 45 8d a7 41 dd 05 9f be
       20.150679 20.633034 20.94398 -0.3105916
0003e0 0f f7 ea 41 e8 5f 0c 41 95 e4 73 41 d7 59 d4 41
       29.370634 8.773415 15.243306 26.543867
0003f0 d4 ce df 41 7a 5a 6b be 46 f4 41 be d1 5c e8 41
       27.97599 -0.22983733 -0.18940839 29.04532

linear2.weight f4 [4, 256]
000000 f2 b8 36 3f 02 48 4a 3f 15 01 3e 3f 14 0f 49 3d
       0.71375954 0.79016125 0.742204 0.049086645
000010 31 1a 4d 3f f4 1a e6 3f 99 c9 97 bc 3b 83 43 3f
       0.8011809 1.7976975 -0.018528746 0.76372117
000020 49 f3 ae bc 58 1b 66 3c b9 08 45 3f 1a 30 ca 3e
       -0.021356242 0.014044605 0.76966435 0.39489824
000030 79 3e 1b 40 fe 2c 43 3f d6 83 38 3f 54 01 f3 3c
       2.425688 0.7624053 0.72076166 0.02966372
000040 c7 5e 32 40 e8 06 43 3f a0 45 11 40 f5 47 c1 3e
       2.7870347 0.76182413 2.2698746 0.3775021
000050 c7 95 1a 3f 03 1e 38 3f 4b c4 43 3f fc fb 11 3f
       0.6038479 0.71920794 0.76471394 0.5702512
000060 33 2c 3d 3f 1d 62 36 3f 20 0d 49 3f 54 49 45 3f
       0.7389557 0.7124346 0.7853565 0.77065015
000070 49 86 53 3f 48 58 4a 3f a2 4e 44 3f e4 54 41 3f
       0.8262678 0.79040956 0.76682484 0.7552016
000080 37 db f2 3e 95 ce 48 3f 58 02 46 3f 05 f9 3f 40
       0.47432873 0.7844022 0.77347326 2.999574
000090 e2 bd 4f 3f f8 82 4c 3f 97 21 20 3f 5e 87 74 be
       0.81149113 0.7988734 0.62551254 -0.23879763
0000a0 90 06 2a 3f ac 63 af 3e 2e f3 53 3f ca df 39 3f
       0.66416264 0.3425573 0.8279294 0.726071
0000b0 c9 d0 47 3f e3 79 41 3f e0 45 4a 3f 58 8f c2 bc
       0.78052956 0.7557661 0.7901287 -0.023749992
0000c0 98 3b 51 3f 21 f9 52 3f 37 8a 3a 3f 00 37 f9 3a
       0.8173156 0.8241139 0.7286715 0.0019013584
0000d0 9c 81 51 3f 6c 7e 1f 3f de cb 48 3f 4c 5b 37 3f
       0.81838393 0.6230228 0.78436077 0.7162368
0000e0 30 42 b9 3e c6 de 45 3f 35 18 40 3f 5e 4b 22 3d
       0.3618331 0.7729305 0.75036937 0.039622657
0000f0 df 5c 43 3f 1f 30 3f 3f 6a e6 4c 3f 3f ce 42 3f
       0.76313585 0.746828 0.80039084 0.76095957
000100 f6 13 82 3f 0b 4a 4d 3f 88 36 16 3f ac a2 44 3f
       1.0162342 0.80191106 0.5867696 0.7681072
000110 70 30 44 40 ab 73 1f 3f c7 a0 49 3f 13 29 57 3f
       3.0654564 0.6228587 0.7876095 0.8404705
000120 6f a2 3f 3d d3 16 1b 3f 48 85 63 bd 99 97 09 40
       0.046785768 0.605817 -0.05554703 2.1498778
000130 d7 5c 31 3f e4 b9 31 3f c1 c3 50 3f b3 91 3e 3f
       0.6928229 0.6942427 0.81548697 0.7444107
000140 b1 5f 36 3f 8a 1b 42 3f 2a 60 32 3f b0 50 4d 3f
       0.71239763 0.7582327 0.69677985 0.80201244
000150 f0 dd 4c 3f 17 14 38 3f 77 f8 30 3f d5 25 9a 3c
       0.8002615 0.71905655 0.6912913 0.018816868
000160 72 3e 9b 3c c0 f2 02 3e 26 f6 4e 3f d0 58 3f 3f
       0.018950675 0.12787914 0.8084434 0.7474489
000170 d6 04 34 3f 14 55 4d 3f d0 30 42 3f 0f bf ae 3c
       0.7031988 0.80207944 0.7585573 0.021331338
000180 d1 ce 32 3f 8e 0a 8d be 40 c0 f9 3b 96 d2 28 3f
       0.69846827 -0.27547115 0.007621795 0.6594633
000190 66 98 0a 40 19 10 4f 3f 08 c4 33 bc e1 e6 f8 3e
       2.1655517 0.8088394 -0.01097203 0.48613647
0001a0 02 22 49 3f b3 c4 18 3f b8 be 3d 3f d9 9c 47 3f
       0.78567517 0.5967514 0.7411914 0.77973706
0001b0 c2 5a 1f 3f 76 7a 54 3f 13 04 33 3f 44 45 0b 40
       0.6224786 0.8299936 0.6992809 2.1761026
0001c0 15 a8 4d 3f 14 30 4a 3f 7b fe 48 3f b4 3b 02 3c
       0.803346 0.7897961 0.78513306 0.007948805
0001d0 5a 54 1a 3f 77 dc f7 be 38 7c 43 3f 7c 47 b7 3e
       0.6028496 -0.4841039 0.7636142 0.35796726
0001e0 9a a5 4a 3f 03 01 1a 3f db 22 2f 3f 5b 36 47 3f
       0.7915894 0.60157794 0.6841256 0.77817315
0001f0 b5 76 2c 3f c2 dc 4e 3f f3 41 50 3f e8 35 47 3f
       0.6736863 0.808056 0.8135063 0.7781663
000200 e6 3f 0b 3f 85 2b 47 3f 74 14 49 3f e4 4c c7 3e
       0.54394376 0.7780078 0.78546834 0.3892585
000210 12 35 0f 3f 26 88 0e 3f ea c9 50 3f 57 c9 9d 3b
       0.55940354 0.55676496 0.81558096 0.0048152613
000220 0c 19 44 3f a4 6c 37 3f 63 55 c0 3e dd ac 4f 3f
       0.7660072 0.7165015 0.37565145 0.81123143
000230 60 4c e9 3e aa f7 44 3f 24 c8 4b 3f 22 b6 3f 3f
       0.45566082 0.76940405 0.79602265 0.7488729
000240 ac 95 49 3f e6 e2 09 3d 0e f2 3c 3f 26 e8 63 3d
       0.78744006 0.033663653 0.73806846 0.055641316
000250 a2 a1 1b 3f c9 a1 3a 3f e7 d9 af 3f b0 48 3d 3f
       0.6079351 0.72903115 1.3738374 0.7393904
000260 57 23 41 3f 46 f1 a6 b9 4e 96 46 3f 7b 7d 59 40
       0.7544455 -0.0003184175 0.77573097 3.3982837
000270 7d ef 36 3f c1 50 47 3f 6b 0d 4d 3f 60 f7 44 3f
       0.7145918 0.77857596 0.800986 0.76939964
000280 eb 58 4b 3f 08 c4 c9 3e c0 c6 46 3f 1c 4e 1c 3f
       0.79432553 0.39407372 0.7764702 0.61056685
000290 ec 4c 6b 3c 94 68 c1 3f 06 96 34 3f d0 14 4d 3f
       0.014361601 1.511004 0.7054142 0.8010988
0002a0 29 a2 38 3f b6 f8 43 3f 3b f5 a8 bc e9 94 ee bb
       0.72122437 0.7655138 -0.020624747 -0.007280935
0002b0 b2 63 35 3f 6e ed 07 3f 74 b5 3b 3f 99 66 36 3f
       0.7085525 0.53096664 0.7332375 0.712503
0002c0 6f b8 47 3f 3b 89 44 3f d2 74 44 3f 8c 04 42 3f
       0.780158 0.767719 0.76740754 0.7578819
0002d0 53 64 41 3f 7e 24 7c 40 da 79 09 3f c5 9b 0b 3f
       0.7554371 3.9397273 0.53701556 0.5453456
0002e0 e5 57 32 3f b1 aa 13 bb 43 73 3a 3f dd c2 f1 3c
       0.69665366 -0.002253216 0.72832125 0.029511863
0002f0 c8 86 4d 40 2a ac 5b 3d db 39 4c 3e 8b c8 33 3f
       3.2113514 0.053630985 0.19943945 0.7022788
000300 83 c9 4a 3f 5b a6 48 3f a5 f5 e3 c0 ed 4b 0f 40
       0.7921373 0.7837884 -7.123736 2.2390091
000310 0e 63 e8 3e 5c 5c 48 3f cf 33 3c 3f f7 ea 40 3f
       0.45388073 0.7826593 0.73516554 0.7535853
000320 e0 4d 40 3f 52 fb 3e 3f 76 58 b3 3e 1c 53 4d 3f
       0.7511883 0.74602234 0.35028428 0.8020494
000330 af 66 ad 3c c6 f7 08 bd 79 f2 40 3f d1 9b 25 3f
       0.021167127 -0.03343942 0.75369984 0.6469088
000340 16 21 4b 3f 8f 41 24 3f 3b 1a 58 3f 13 55 4c 3f
       0.7934736 0.64162534 0.84415025 0.7981731
000350 77 f9 b4 3f 9e 6e fa 3e 0e e8 44 3f 9a 35 4b 3f
       1.4138631 0.4891252 0.7691659 0.79378664
000360 e7 e9 18 3c f9 23 4f 3f 61 09 3c 3f 08 70 43 3f
       0.00933311 0.80914265 0.7345181 0.7634282
000370 92 ee 50 3f fd 20 0c 40 cc d5 3e 3f 23 ef 69 40
       0.8161403 2.1895134 0.7454498 3.6552207
000380 e4 22 4d 3f 0b 6d 6b 3b 23 b0 49 3f 07 77 51 3f
       0.80131364 0.003592315 0.7878439 0.81822246
000390 94 c3 4b 3f 9e 08 09 40 7a 30 0d 3f 93 f6 48 3f
       0.79595304 2.141151 0.55152094 0.7850124
0003a0 c4 f1 4a 3f 14 51 3c 3f 5f a9 50 3f 1f f9 29 3f
       0.79275155 0.73561215 0.8150844 0.66395754
0003b0 ef 80 49 3f 44 31 3a 3f c1 c4 3c 3f 13 59 70 bd
       0.7871236 0.72731423 0.7373772 -0.058678698
0003c0 26 6f 4b 40 0f 31 4a 3f 66 73 43 3f ad 05 4d 40
       3.178659 0.7898111 0.7634796 3.2034714
0003d0 ea 5b 40 3f a4 7a 4a 3f 09 ac 33 3f 47 ed 24 3b
       0.7514025 0.79093385 0.7018438 0.0025165842
0003e0 97 dc 3f 3f 72 99 e4 3e 40 d6 48 3f 78 f9 39 3f
       0.7494597 0.4464832 0.7845192 0.72646284
0003f0 d6 f3 3c 3f 16 29 65 bd 5e 10 07 3d c5 30 37 3f
       0.73809564 -0.055947386 0.032974593 0.7155879

linear2.bias f4 [4]
000000 87 32 2e 3f 2e 6e 4f 3f 1f fd 81 3f 4e c6 43 3f
       0.6804585 0.81027496 1.0155371 0.76474464
